{"format": "graph-model", "generatedBy": "2.15.0", "convertedBy": "TensorFlow.js Converter v4.10.0", "signature": {"inputs": {"input": {"name": "input:0", "dtype": "DT_FLOAT", "tensorShape": {"dim": [{"size": "-1"}, {"size": "16000"}, {"size": "1"}]}}}, "outputs": {"dense_3": {"name": "Identity:0", "dtype": "DT_FLOAT", "tensorShape": {"dim": [{"size": "-1"}, {"size": "9"}]}}}}, "modelTopology": {"node": [{"name": "StatefulPartitionedCall/simplified_model_with_melspec/lambda/strided_slice/stack", "op": "Const", "attr": {"value": {"tensor": {"dtype": "DT_INT32", "tensorShape": {"dim": [{"size": "2"}]}}}, "dtype": {"type": "DT_INT32"}}}, {"name": "StatefulPartitionedCall/simplified_model_with_melspec/lambda/strided_slice/stack_1", "op": "Const", "attr": {"value": {"tensor": {"dtype": "DT_INT32", "tensorShape": {"dim": [{"size": "2"}]}}}, "dtype": {"type": "DT_INT32"}}}, {"name": "StatefulPartitionedCall/simplified_model_with_melspec/lambda/strided_slice/stack_2", "op": "Const", "attr": {"value": {"tensor": {"dtype": "DT_INT32", "tensorShape": {"dim": [{"size": "2"}]}}}, "dtype": {"type": "DT_INT32"}}}, {"name": "StatefulPartitionedCall/simplified_model_with_melspec/dense/MatMul/ReadVariableOp", "op": "Const", "attr": {"value": {"tensor": {"dtype": "DT_FLOAT", "tensorShape": {"dim": [{"size": "128"}, {"size": "128"}]}}}, "dtype": {"type": "DT_FLOAT"}}}, {"name": "StatefulPartitionedCall/simplified_model_with_melspec/dense/BiasAdd/ReadVariableOp", "op": "Const", "attr": {"value": {"tensor": {"dtype": "DT_FLOAT", "tensorShape": {"dim": [{"size": "128"}]}}}, "dtype": {"type": "DT_FLOAT"}}}, {"name": "StatefulPartitionedCall/simplified_model_with_melspec/dot/ExpandDims/dim", "op": "Const", "attr": {"value": {"tensor": {"dtype": "DT_INT32", "tensorShape": {}}}, "dtype": {"type": "DT_INT32"}}}, {"name": "StatefulPartitionedCall/simplified_model_with_melspec/dot_1/ExpandDims/dim", "op": "Const", "attr": {"value": {"tensor": {"dtype": "DT_INT32", "tensorShape": {}}}, "dtype": {"type": "DT_INT32"}}}, {"name": "StatefulPartitionedCall/simplified_model_with_melspec/bidirectional_1/forward_lstm_1/PartitionedCall/TensorArrayV2_1/element_shape", "op": "Const", "attr": {"value": {"tensor": {"dtype": "DT_INT32", "tensorShape": {"dim": [{"size": "2"}]}}}, "dtype": {"type": "DT_INT32"}}}, {"name": "StatefulPartitionedCall/simplified_model_with_melspec/bidirectional_1/forward_lstm_1/zeros_1/packed/1", "op": "Const", "attr": {"value": {"tensor": {"dtype": "DT_INT32", "tensorShape": {}}}, "dtype": {"type": "DT_INT32"}}}, {"name": "StatefulPartitionedCall/simplified_model_with_melspec/bidirectional_1/forward_lstm_1/zeros_1/Const", "op": "Const", "attr": {"value": {"tensor": {"dtype": "DT_FLOAT", "tensorShape": {}}}, "dtype": {"type": "DT_FLOAT"}}}, {"name": "StatefulPartitionedCall/simplified_model_with_melspec/bidirectional_1/forward_lstm_1/PartitionedCall/TensorArrayUnstack/TensorListFromTensor/element_shape", "op": "Const", "attr": {"value": {"tensor": {"dtype": "DT_INT32", "tensorShape": {"dim": [{"size": "2"}]}}}, "dtype": {"type": "DT_INT32"}}}, {"name": "StatefulPartitionedCall/simplified_model_with_melspec/bidirectional_1/forward_lstm_1/Read/ReadVariableOp", "op": "Const", "attr": {"value": {"tensor": {"dtype": "DT_FLOAT", "tensorShape": {"dim": [{"size": "128"}, {"size": "256"}]}}}, "dtype": {"type": "DT_FLOAT"}}}, {"name": "StatefulPartitionedCall/simplified_model_with_melspec/bidirectional_1/forward_lstm_1/strided_slice/stack", "op": "Const", "attr": {"value": {"tensor": {"dtype": "DT_INT32", "tensorShape": {"dim": [{"size": "1"}]}}}, "dtype": {"type": "DT_INT32"}}}, {"name": "StatefulPartitionedCall/simplified_model_with_melspec/bidirectional_1/forward_lstm_1/strided_slice/stack_1", "op": "Const", "attr": {"value": {"tensor": {"dtype": "DT_INT32", "tensorShape": {"dim": [{"size": "1"}]}}}, "dtype": {"type": "DT_INT32"}}}, {"name": "StatefulPartitionedCall/simplified_model_with_melspec/bidirectional_1/forward_lstm_1/strided_slice/stack_2", "op": "Const", "attr": {"value": {"tensor": {"dtype": "DT_INT32", "tensorShape": {"dim": [{"size": "1"}]}}}, "dtype": {"type": "DT_INT32"}}}, {"name": "StatefulPartitionedCall/simplified_model_with_melspec/bidirectional_1/forward_lstm_1/zeros/packed/1", "op": "Const", "attr": {"value": {"tensor": {"dtype": "DT_INT32", "tensorShape": {}}}, "dtype": {"type": "DT_INT32"}}}, {"name": "StatefulPartitionedCall/simplified_model_with_melspec/bidirectional_1/forward_lstm_1/zeros/Const", "op": "Const", "attr": {"value": {"tensor": {"dtype": "DT_FLOAT", "tensorShape": {}}}, "dtype": {"type": "DT_FLOAT"}}}, {"name": "StatefulPartitionedCall/simplified_model_with_melspec/bidirectional_1/forward_lstm_1/Read_1/ReadVariableOp", "op": "Const", "attr": {"value": {"tensor": {"dtype": "DT_FLOAT", "tensorShape": {"dim": [{"size": "64"}, {"size": "256"}]}}}, "dtype": {"type": "DT_FLOAT"}}}, {"name": "StatefulPartitionedCall/simplified_model_with_melspec/bidirectional_1/forward_lstm_1/Read_2/ReadVariableOp", "op": "Const", "attr": {"value": {"tensor": {"dtype": "DT_FLOAT", "tensorShape": {"dim": [{"size": "256"}]}}}, "dtype": {"type": "DT_FLOAT"}}}, {"name": "StatefulPartitionedCall/simplified_model_with_melspec/bidirectional_1/forward_lstm_1/PartitionedCall/time", "op": "Const", "attr": {"value": {"tensor": {"dtype": "DT_INT32", "tensorShape": {}}}, "dtype": {"type": "DT_INT32"}}}, {"name": "StatefulPartitionedCall/simplified_model_with_melspec/bidirectional_1/forward_lstm_1/PartitionedCall/transpose/perm", "op": "Const", "attr": {"value": {"tensor": {"dtype": "DT_INT32", "tensorShape": {"dim": [{"size": "3"}]}}}, "dtype": {"type": "DT_INT32"}}}, {"name": "StatefulPartitionedCall/simplified_model_with_melspec/bidirectional_1/forward_lstm_1/PartitionedCall/strided_slice/stack", "op": "Const", "attr": {"value": {"tensor": {"dtype": "DT_INT32", "tensorShape": {"dim": [{"size": "1"}]}}}, "dtype": {"type": "DT_INT32"}}}, {"name": "StatefulPartitionedCall/simplified_model_with_melspec/bidirectional_1/forward_lstm_1/PartitionedCall/strided_slice/stack_1", "op": "Const", "attr": {"value": {"tensor": {"dtype": "DT_INT32", "tensorShape": {"dim": [{"size": "1"}]}}}, "dtype": {"type": "DT_INT32"}}}, {"name": "StatefulPartitionedCall/simplified_model_with_melspec/bidirectional_1/forward_lstm_1/PartitionedCall/strided_slice/stack_2", "op": "Const", "attr": {"value": {"tensor": {"dtype": "DT_INT32", "tensorShape": {"dim": [{"size": "1"}]}}}, "dtype": {"type": "DT_INT32"}}}, {"name": "StatefulPartitionedCall/simplified_model_with_melspec/bidirectional_1/forward_lstm_1/PartitionedCall/while/loop_counter", "op": "Const", "attr": {"value": {"tensor": {"dtype": "DT_INT32", "tensorShape": {}}}, "dtype": {"type": "DT_INT32"}}}, {"name": "StatefulPartitionedCall/simplified_model_with_melspec/bidirectional_1/forward_lstm_1/PartitionedCall/TensorArrayV2Stack/TensorListStack/element_shape", "op": "Const", "attr": {"value": {"tensor": {"dtype": "DT_INT32", "tensorShape": {"dim": [{"size": "2"}]}}}, "dtype": {"type": "DT_INT32"}}}, {"name": "StatefulPartitionedCall/simplified_model_with_melspec/bidirectional_1/forward_lstm_1/PartitionedCall/transpose_1/perm", "op": "Const", "attr": {"value": {"tensor": {"dtype": "DT_INT32", "tensorShape": {"dim": [{"size": "3"}]}}}, "dtype": {"type": "DT_INT32"}}}, {"name": "StatefulPartitionedCall/simplified_model_with_melspec/bidirectional_1/backward_lstm_1/PartitionedCall/TensorArrayV2_1/element_shape", "op": "Const", "attr": {"value": {"tensor": {"dtype": "DT_INT32", "tensorShape": {"dim": [{"size": "2"}]}}}, "dtype": {"type": "DT_INT32"}}}, {"name": "StatefulPartitionedCall/simplified_model_with_melspec/bidirectional_1/backward_lstm_1/zeros_1/packed/1", "op": "Const", "attr": {"value": {"tensor": {"dtype": "DT_INT32", "tensorShape": {}}}, "dtype": {"type": "DT_INT32"}}}, {"name": "StatefulPartitionedCall/simplified_model_with_melspec/bidirectional_1/backward_lstm_1/zeros_1/Const", "op": "Const", "attr": {"value": {"tensor": {"dtype": "DT_FLOAT", "tensorShape": {}}}, "dtype": {"type": "DT_FLOAT"}}}, {"name": "StatefulPartitionedCall/simplified_model_with_melspec/bidirectional_1/backward_lstm_1/PartitionedCall/ReverseV2/axis", "op": "Const", "attr": {"value": {"tensor": {"dtype": "DT_INT32", "tensorShape": {"dim": [{"size": "1"}]}}}, "dtype": {"type": "DT_INT32"}}}, {"name": "StatefulPartitionedCall/simplified_model_with_melspec/bidirectional_1/backward_lstm_1/PartitionedCall/TensorArrayUnstack/TensorListFromTensor/element_shape", "op": "Const", "attr": {"value": {"tensor": {"dtype": "DT_INT32", "tensorShape": {"dim": [{"size": "2"}]}}}, "dtype": {"type": "DT_INT32"}}}, {"name": "StatefulPartitionedCall/simplified_model_with_melspec/bidirectional_1/backward_lstm_1/Read/ReadVariableOp", "op": "Const", "attr": {"value": {"tensor": {"dtype": "DT_FLOAT", "tensorShape": {"dim": [{"size": "128"}, {"size": "256"}]}}}, "dtype": {"type": "DT_FLOAT"}}}, {"name": "StatefulPartitionedCall/simplified_model_with_melspec/bidirectional_1/backward_lstm_1/strided_slice/stack", "op": "Const", "attr": {"value": {"tensor": {"dtype": "DT_INT32", "tensorShape": {"dim": [{"size": "1"}]}}}, "dtype": {"type": "DT_INT32"}}}, {"name": "StatefulPartitionedCall/simplified_model_with_melspec/bidirectional_1/backward_lstm_1/strided_slice/stack_1", "op": "Const", "attr": {"value": {"tensor": {"dtype": "DT_INT32", "tensorShape": {"dim": [{"size": "1"}]}}}, "dtype": {"type": "DT_INT32"}}}, {"name": "StatefulPartitionedCall/simplified_model_with_melspec/bidirectional_1/backward_lstm_1/strided_slice/stack_2", "op": "Const", "attr": {"value": {"tensor": {"dtype": "DT_INT32", "tensorShape": {"dim": [{"size": "1"}]}}}, "dtype": {"type": "DT_INT32"}}}, {"name": "StatefulPartitionedCall/simplified_model_with_melspec/bidirectional_1/backward_lstm_1/zeros/packed/1", "op": "Const", "attr": {"value": {"tensor": {"dtype": "DT_INT32", "tensorShape": {}}}, "dtype": {"type": "DT_INT32"}}}, {"name": "StatefulPartitionedCall/simplified_model_with_melspec/bidirectional_1/backward_lstm_1/zeros/Const", "op": "Const", "attr": {"value": {"tensor": {"dtype": "DT_FLOAT", "tensorShape": {}}}, "dtype": {"type": "DT_FLOAT"}}}, {"name": "StatefulPartitionedCall/simplified_model_with_melspec/bidirectional_1/backward_lstm_1/Read_1/ReadVariableOp", "op": "Const", "attr": {"value": {"tensor": {"dtype": "DT_FLOAT", "tensorShape": {"dim": [{"size": "64"}, {"size": "256"}]}}}, "dtype": {"type": "DT_FLOAT"}}}, {"name": "StatefulPartitionedCall/simplified_model_with_melspec/bidirectional_1/backward_lstm_1/Read_2/ReadVariableOp", "op": "Const", "attr": {"value": {"tensor": {"dtype": "DT_FLOAT", "tensorShape": {"dim": [{"size": "256"}]}}}, "dtype": {"type": "DT_FLOAT"}}}, {"name": "StatefulPartitionedCall/simplified_model_with_melspec/bidirectional_1/backward_lstm_1/PartitionedCall/time", "op": "Const", "attr": {"value": {"tensor": {"dtype": "DT_INT32", "tensorShape": {}}}, "dtype": {"type": "DT_INT32"}}}, {"name": "StatefulPartitionedCall/simplified_model_with_melspec/bidirectional/forward_lstm/PartitionedCall/TensorArrayV2_1/element_shape", "op": "Const", "attr": {"value": {"tensor": {"dtype": "DT_INT32", "tensorShape": {"dim": [{"size": "2"}]}}}, "dtype": {"type": "DT_INT32"}}}, {"name": "StatefulPartitionedCall/simplified_model_with_melspec/bidirectional/forward_lstm/zeros_1/packed/1", "op": "Const", "attr": {"value": {"tensor": {"dtype": "DT_INT32", "tensorShape": {}}}, "dtype": {"type": "DT_INT32"}}}, {"name": "StatefulPartitionedCall/simplified_model_with_melspec/bidirectional/forward_lstm/zeros_1/Const", "op": "Const", "attr": {"value": {"tensor": {"dtype": "DT_FLOAT", "tensorShape": {}}}, "dtype": {"type": "DT_FLOAT"}}}, {"name": "StatefulPartitionedCall/simplified_model_with_melspec/bidirectional/forward_lstm/PartitionedCall/TensorArrayUnstack/TensorListFromTensor/element_shape", "op": "Const", "attr": {"value": {"tensor": {"dtype": "DT_INT32", "tensorShape": {"dim": [{"size": "2"}]}}}, "dtype": {"type": "DT_INT32"}}}, {"name": "StatefulPartitionedCall/simplified_model_with_melspec/bidirectional/forward_lstm/Read/ReadVariableOp", "op": "Const", "attr": {"value": {"tensor": {"dtype": "DT_FLOAT", "tensorShape": {"dim": [{"size": "64"}, {"size": "256"}]}}}, "dtype": {"type": "DT_FLOAT"}}}, {"name": "StatefulPartitionedCall/simplified_model_with_melspec/bidirectional/forward_lstm/strided_slice/stack", "op": "Const", "attr": {"value": {"tensor": {"dtype": "DT_INT32", "tensorShape": {"dim": [{"size": "1"}]}}}, "dtype": {"type": "DT_INT32"}}}, {"name": "StatefulPartitionedCall/simplified_model_with_melspec/bidirectional/forward_lstm/strided_slice/stack_1", "op": "Const", "attr": {"value": {"tensor": {"dtype": "DT_INT32", "tensorShape": {"dim": [{"size": "1"}]}}}, "dtype": {"type": "DT_INT32"}}}, {"name": "StatefulPartitionedCall/simplified_model_with_melspec/bidirectional/forward_lstm/strided_slice/stack_2", "op": "Const", "attr": {"value": {"tensor": {"dtype": "DT_INT32", "tensorShape": {"dim": [{"size": "1"}]}}}, "dtype": {"type": "DT_INT32"}}}, {"name": "StatefulPartitionedCall/simplified_model_with_melspec/bidirectional/forward_lstm/zeros/packed/1", "op": "Const", "attr": {"value": {"tensor": {"dtype": "DT_INT32", "tensorShape": {}}}, "dtype": {"type": "DT_INT32"}}}, {"name": "StatefulPartitionedCall/simplified_model_with_melspec/bidirectional/forward_lstm/zeros/Const", "op": "Const", "attr": {"value": {"tensor": {"dtype": "DT_FLOAT", "tensorShape": {}}}, "dtype": {"type": "DT_FLOAT"}}}, {"name": "StatefulPartitionedCall/simplified_model_with_melspec/bidirectional/forward_lstm/Read_1/ReadVariableOp", "op": "Const", "attr": {"value": {"tensor": {"dtype": "DT_FLOAT", "tensorShape": {"dim": [{"size": "64"}, {"size": "256"}]}}}, "dtype": {"type": "DT_FLOAT"}}}, {"name": "StatefulPartitionedCall/simplified_model_with_melspec/bidirectional/forward_lstm/Read_2/ReadVariableOp", "op": "Const", "attr": {"value": {"tensor": {"dtype": "DT_FLOAT", "tensorShape": {"dim": [{"size": "256"}]}}}, "dtype": {"type": "DT_FLOAT"}}}, {"name": "StatefulPartitionedCall/simplified_model_with_melspec/bidirectional/forward_lstm/PartitionedCall/time", "op": "Const", "attr": {"value": {"tensor": {"dtype": "DT_INT32", "tensorShape": {}}}, "dtype": {"type": "DT_INT32"}}}, {"name": "StatefulPartitionedCall/simplified_model_with_melspec/bidirectional/forward_lstm/PartitionedCall/transpose/perm", "op": "Const", "attr": {"value": {"tensor": {"dtype": "DT_INT32", "tensorShape": {"dim": [{"size": "3"}]}}}, "dtype": {"type": "DT_INT32"}}}, {"name": "StatefulPartitionedCall/simplified_model_with_melspec/bidirectional/forward_lstm/PartitionedCall/strided_slice/stack", "op": "Const", "attr": {"value": {"tensor": {"dtype": "DT_INT32", "tensorShape": {"dim": [{"size": "1"}]}}}, "dtype": {"type": "DT_INT32"}}}, {"name": "StatefulPartitionedCall/simplified_model_with_melspec/bidirectional/forward_lstm/PartitionedCall/strided_slice/stack_1", "op": "Const", "attr": {"value": {"tensor": {"dtype": "DT_INT32", "tensorShape": {"dim": [{"size": "1"}]}}}, "dtype": {"type": "DT_INT32"}}}, {"name": "StatefulPartitionedCall/simplified_model_with_melspec/bidirectional/forward_lstm/PartitionedCall/strided_slice/stack_2", "op": "Const", "attr": {"value": {"tensor": {"dtype": "DT_INT32", "tensorShape": {"dim": [{"size": "1"}]}}}, "dtype": {"type": "DT_INT32"}}}, {"name": "StatefulPartitionedCall/simplified_model_with_melspec/bidirectional/forward_lstm/PartitionedCall/while/loop_counter", "op": "Const", "attr": {"value": {"tensor": {"dtype": "DT_INT32", "tensorShape": {}}}, "dtype": {"type": "DT_INT32"}}}, {"name": "StatefulPartitionedCall/simplified_model_with_melspec/bidirectional/forward_lstm/PartitionedCall/TensorArrayV2Stack/TensorListStack/element_shape", "op": "Const", "attr": {"value": {"tensor": {"dtype": "DT_INT32", "tensorShape": {"dim": [{"size": "2"}]}}}, "dtype": {"type": "DT_INT32"}}}, {"name": "StatefulPartitionedCall/simplified_model_with_melspec/bidirectional/forward_lstm/PartitionedCall/transpose_1/perm", "op": "Const", "attr": {"value": {"tensor": {"dtype": "DT_INT32", "tensorShape": {"dim": [{"size": "3"}]}}}, "dtype": {"type": "DT_INT32"}}}, {"name": "StatefulPartitionedCall/simplified_model_with_melspec/bidirectional/backward_lstm/PartitionedCall/TensorArrayV2_1/element_shape", "op": "Const", "attr": {"value": {"tensor": {"dtype": "DT_INT32", "tensorShape": {"dim": [{"size": "2"}]}}}, "dtype": {"type": "DT_INT32"}}}, {"name": "StatefulPartitionedCall/simplified_model_with_melspec/bidirectional/backward_lstm/zeros_1/packed/1", "op": "Const", "attr": {"value": {"tensor": {"dtype": "DT_INT32", "tensorShape": {}}}, "dtype": {"type": "DT_INT32"}}}, {"name": "StatefulPartitionedCall/simplified_model_with_melspec/bidirectional/backward_lstm/zeros_1/Const", "op": "Const", "attr": {"value": {"tensor": {"dtype": "DT_FLOAT", "tensorShape": {}}}, "dtype": {"type": "DT_FLOAT"}}}, {"name": "StatefulPartitionedCall/simplified_model_with_melspec/bidirectional/backward_lstm/PartitionedCall/ReverseV2/axis", "op": "Const", "attr": {"value": {"tensor": {"dtype": "DT_INT32", "tensorShape": {"dim": [{"size": "1"}]}}}, "dtype": {"type": "DT_INT32"}}}, {"name": "StatefulPartitionedCall/simplified_model_with_melspec/bidirectional/backward_lstm/PartitionedCall/TensorArrayUnstack/TensorListFromTensor/element_shape", "op": "Const", "attr": {"value": {"tensor": {"dtype": "DT_INT32", "tensorShape": {"dim": [{"size": "2"}]}}}, "dtype": {"type": "DT_INT32"}}}, {"name": "StatefulPartitionedCall/simplified_model_with_melspec/bidirectional/backward_lstm/Read/ReadVariableOp", "op": "Const", "attr": {"value": {"tensor": {"dtype": "DT_FLOAT", "tensorShape": {"dim": [{"size": "64"}, {"size": "256"}]}}}, "dtype": {"type": "DT_FLOAT"}}}, {"name": "StatefulPartitionedCall/simplified_model_with_melspec/bidirectional/backward_lstm/strided_slice/stack", "op": "Const", "attr": {"value": {"tensor": {"dtype": "DT_INT32", "tensorShape": {"dim": [{"size": "1"}]}}}, "dtype": {"type": "DT_INT32"}}}, {"name": "StatefulPartitionedCall/simplified_model_with_melspec/bidirectional/backward_lstm/strided_slice/stack_1", "op": "Const", "attr": {"value": {"tensor": {"dtype": "DT_INT32", "tensorShape": {"dim": [{"size": "1"}]}}}, "dtype": {"type": "DT_INT32"}}}, {"name": "StatefulPartitionedCall/simplified_model_with_melspec/bidirectional/backward_lstm/strided_slice/stack_2", "op": "Const", "attr": {"value": {"tensor": {"dtype": "DT_INT32", "tensorShape": {"dim": [{"size": "1"}]}}}, "dtype": {"type": "DT_INT32"}}}, {"name": "StatefulPartitionedCall/simplified_model_with_melspec/bidirectional/backward_lstm/zeros/packed/1", "op": "Const", "attr": {"value": {"tensor": {"dtype": "DT_INT32", "tensorShape": {}}}, "dtype": {"type": "DT_INT32"}}}, {"name": "StatefulPartitionedCall/simplified_model_with_melspec/bidirectional/backward_lstm/zeros/Const", "op": "Const", "attr": {"value": {"tensor": {"dtype": "DT_FLOAT", "tensorShape": {}}}, "dtype": {"type": "DT_FLOAT"}}}, {"name": "StatefulPartitionedCall/simplified_model_with_melspec/bidirectional/backward_lstm/Read_1/ReadVariableOp", "op": "Const", "attr": {"value": {"tensor": {"dtype": "DT_FLOAT", "tensorShape": {"dim": [{"size": "64"}, {"size": "256"}]}}}, "dtype": {"type": "DT_FLOAT"}}}, {"name": "StatefulPartitionedCall/simplified_model_with_melspec/bidirectional/backward_lstm/Read_2/ReadVariableOp", "op": "Const", "attr": {"value": {"tensor": {"dtype": "DT_FLOAT", "tensorShape": {"dim": [{"size": "256"}]}}}, "dtype": {"type": "DT_FLOAT"}}}, {"name": "StatefulPartitionedCall/simplified_model_with_melspec/bidirectional/backward_lstm/PartitionedCall/time", "op": "Const", "attr": {"value": {"tensor": {"dtype": "DT_INT32", "tensorShape": {}}}, "dtype": {"type": "DT_INT32"}}}, {"name": "StatefulPartitionedCall/simplified_model_with_melspec/normalized_spectrogram_model/tf.math.reduce_mean_1/Const", "op": "Const", "attr": {"value": {"tensor": {"dtype": "DT_INT32", "tensorShape": {"dim": [{"size": "3"}]}}}, "dtype": {"type": "DT_INT32"}}}, {"name": "StatefulPartitionedCall/simplified_model_with_melspec/normalized_spectrogram_model/tf.tensordot_1/Tensordot/Const", "op": "Const", "attr": {"value": {"tensor": {"dtype": "DT_INT32", "tensorShape": {"dim": [{"size": "1"}]}}}, "dtype": {"type": "DT_INT32"}}}, {"name": "StatefulPartitionedCall/simplified_model_with_melspec/normalized_spectrogram_model/tf.tensordot_1/Tensordot/axes", "op": "Const", "attr": {"value": {"tensor": {"dtype": "DT_INT32", "tensorShape": {"dim": [{"size": "1"}]}}}, "dtype": {"type": "DT_INT32"}}}, {"name": "StatefulPartitionedCall/simplified_model_with_melspec/normalized_spectrogram_model/tf.tensordot_1/Tensordot/GatherV2_1/axis", "op": "Const", "attr": {"value": {"tensor": {"dtype": "DT_INT32", "tensorShape": {}}}, "dtype": {"type": "DT_INT32"}}}, {"name": "StatefulPartitionedCall/simplified_model_with_melspec/normalized_spectrogram_model/tf.tensordot_1/Tensordot/Const_1", "op": "Const", "attr": {"value": {"tensor": {"dtype": "DT_INT32", "tensorShape": {"dim": [{"size": "1"}]}}}, "dtype": {"type": "DT_INT32"}}}, {"name": "unknown", "op": "Const", "attr": {"value": {"tensor": {"dtype": "DT_FLOAT", "tensorShape": {"dim": [{"size": "257"}, {"size": "64"}]}}}, "dtype": {"type": "DT_FLOAT"}}}, {"name": "StatefulPartitionedCall/simplified_model_with_melspec/normalized_spectrogram_model/tf.signal.stft_1/stft/frame/zeros_like", "op": "Const", "attr": {"value": {"tensor": {"dtype": "DT_INT32", "tensorShape": {"dim": [{"size": "2"}]}}}, "dtype": {"type": "DT_INT32"}}}, {"name": "StatefulPartitionedCall/simplified_model_with_melspec/normalized_spectrogram_model/tf.signal.stft_1/stft/frame/mul_1/y", "op": "Const", "attr": {"value": {"tensor": {"dtype": "DT_INT32", "tensorShape": {}}}, "dtype": {"type": "DT_INT32"}}}, {"name": "StatefulPartitionedCall/simplified_model_with_melspec/normalized_spectrogram_model/tf.signal.stft_1/stft/frame/concat_1/axis", "op": "Const", "attr": {"value": {"tensor": {"dtype": "DT_INT32", "tensorShape": {}}}, "dtype": {"type": "DT_INT32"}}}, {"name": "StatefulPartitionedCall/simplified_model_with_melspec/normalized_spectrogram_model/tf.signal.stft_1/stft/frame/ones_like", "op": "Const", "attr": {"value": {"tensor": {"dtype": "DT_INT32", "tensorShape": {"dim": [{"size": "2"}]}}}, "dtype": {"type": "DT_INT32"}}}, {"name": "StatefulPartitionedCall/simplified_model_with_melspec/normalized_spectrogram_model/tf.signal.stft_1/stft/frame/zeros", "op": "Const", "attr": {"value": {"tensor": {"dtype": "DT_INT32", "tensorShape": {"dim": [{"size": "1"}, {"size": "2"}]}}}, "dtype": {"type": "DT_INT32"}}}, {"name": "StatefulPartitionedCall/simplified_model_with_melspec/normalized_spectrogram_model/tf.signal.stft_1/stft/frame/packed_1/0/0", "op": "Const", "attr": {"value": {"tensor": {"dtype": "DT_INT32", "tensorShape": {}}}, "dtype": {"type": "DT_INT32"}}}, {"name": "StatefulPartitionedCall/simplified_model_with_melspec/normalized_spectrogram_model/tf.signal.stft_1/stft/frame/Maximum/x", "op": "Const", "attr": {"value": {"tensor": {"dtype": "DT_INT32", "tensorShape": {}}}, "dtype": {"type": "DT_INT32"}}}, {"name": "StatefulPartitionedCall/simplified_model_with_melspec/normalized_spectrogram_model/tf.signal.stft_1/stft/frame/sub_2/y", "op": "Const", "attr": {"value": {"tensor": {"dtype": "DT_INT32", "tensorShape": {}}}, "dtype": {"type": "DT_INT32"}}}, {"name": "StatefulPartitionedCall/simplified_model_with_melspec/normalized_spectrogram_model/tf.signal.stft_1/stft/frame/zeros_1", "op": "Const", "attr": {"value": {"tensor": {"dtype": "DT_INT32", "tensorShape": {"dim": [{}, {"size": "2"}]}}}, "dtype": {"type": "DT_INT32"}}}, {"name": "StatefulPartitionedCall/simplified_model_with_melspec/normalized_spectrogram_model/tf.signal.stft_1/stft/frame/concat/axis", "op": "Const", "attr": {"value": {"tensor": {"dtype": "DT_INT32", "tensorShape": {}}}, "dtype": {"type": "DT_INT32"}}}, {"name": "StatefulPartitionedCall/simplified_model_with_melspec/normalized_spectrogram_model/tf.signal.stft_1/stft/frame/Const", "op": "Const", "attr": {"value": {"tensor": {"dtype": "DT_FLOAT", "tensorShape": {}}}, "dtype": {"type": "DT_FLOAT"}}}, {"name": "StatefulPartitionedCall/simplified_model_with_melspec/normalized_spectrogram_model/tf.signal.stft_1/stft/frame/strided_slice_1/stack", "op": "Const", "attr": {"value": {"tensor": {"dtype": "DT_INT32", "tensorShape": {"dim": [{"size": "1"}]}}}, "dtype": {"type": "DT_INT32"}}}, {"name": "StatefulPartitionedCall/simplified_model_with_melspec/normalized_spectrogram_model/tf.signal.stft_1/stft/frame/strided_slice_1/stack_1", "op": "Const", "attr": {"value": {"tensor": {"dtype": "DT_INT32", "tensorShape": {"dim": [{"size": "1"}]}}}, "dtype": {"type": "DT_INT32"}}}, {"name": "StatefulPartitionedCall/simplified_model_with_melspec/normalized_spectrogram_model/tf.signal.stft_1/stft/frame/strided_slice_1/stack_2", "op": "Const", "attr": {"value": {"tensor": {"dtype": "DT_INT32", "tensorShape": {"dim": [{"size": "1"}]}}}, "dtype": {"type": "DT_INT32"}}}, {"name": "StatefulPartitionedCall/simplified_model_with_melspec/normalized_spectrogram_model/tf.signal.stft_1/stft/frame/floordiv_3/y", "op": "Const", "attr": {"value": {"tensor": {"dtype": "DT_INT32", "tensorShape": {}}}, "dtype": {"type": "DT_INT32"}}}, {"name": "StatefulPartitionedCall/simplified_model_with_melspec/normalized_spectrogram_model/tf.signal.stft_1/stft/frame/concat_2/values_1/1", "op": "Const", "attr": {"value": {"tensor": {"dtype": "DT_INT32", "tensorShape": {}}}, "dtype": {"type": "DT_INT32"}}}, {"name": "StatefulPartitionedCall/simplified_model_with_melspec/normalized_spectrogram_model/tf.signal.stft_1/stft/frame/concat_2/axis", "op": "Const", "attr": {"value": {"tensor": {"dtype": "DT_INT32", "tensorShape": {}}}, "dtype": {"type": "DT_INT32"}}}, {"name": "StatefulPartitionedCall/simplified_model_with_melspec/normalized_spectrogram_model/tf.signal.stft_1/stft/frame/range_1/start", "op": "Const", "attr": {"value": {"tensor": {"dtype": "DT_INT32", "tensorShape": {}}}, "dtype": {"type": "DT_INT32"}}}, {"name": "StatefulPartitionedCall/simplified_model_with_melspec/normalized_spectrogram_model/tf.signal.stft_1/stft/frame/range_1/delta", "op": "Const", "attr": {"value": {"tensor": {"dtype": "DT_INT32", "tensorShape": {}}}, "dtype": {"type": "DT_INT32"}}}, {"name": "StatefulPartitionedCall/simplified_model_with_melspec/normalized_spectrogram_model/tf.signal.stft_1/stft/frame/floordiv_2", "op": "Const", "attr": {"value": {"tensor": {"dtype": "DT_INT32", "tensorShape": {}}}, "dtype": {"type": "DT_INT32"}}}, {"name": "StatefulPartitionedCall/simplified_model_with_melspec/normalized_spectrogram_model/tf.signal.stft_1/stft/frame/Reshape_2/shape/1", "op": "Const", "attr": {"value": {"tensor": {"dtype": "DT_INT32", "tensorShape": {}}}, "dtype": {"type": "DT_INT32"}}}, {"name": "StatefulPartitionedCall/simplified_model_with_melspec/normalized_spectrogram_model/tf.signal.stft_1/stft/frame/Reshape_3", "op": "Const", "attr": {"value": {"tensor": {"dtype": "DT_INT32", "tensorShape": {"dim": [{"size": "1"}, {"size": "16"}]}}}, "dtype": {"type": "DT_INT32"}}}, {"name": "StatefulPartitionedCall/simplified_model_with_melspec/normalized_spectrogram_model/tf.signal.stft_1/stft/frame/strided_slice", "op": "Const", "attr": {"value": {"tensor": {"dtype": "DT_INT32", "tensorShape": {}}}, "dtype": {"type": "DT_INT32"}}}, {"name": "StatefulPartitionedCall/simplified_model_with_melspec/normalized_spectrogram_model/tf.signal.stft_1/stft/frame/Reshape/shape_1", "op": "Const", "attr": {"value": {"tensor": {"dtype": "DT_INT32", "tensorShape": {"dim": [{}]}}}, "dtype": {"type": "DT_INT32"}}}, {"name": "StatefulPartitionedCall/simplified_model_with_melspec/normalized_spectrogram_model/tf.signal.stft_1/stft/frame_step", "op": "Const", "attr": {"value": {"tensor": {"dtype": "DT_INT32", "tensorShape": {}}}, "dtype": {"type": "DT_INT32"}}}, {"name": "StatefulPartitionedCall/simplified_model_with_melspec/normalized_spectrogram_model/tf.signal.stft_1/stft/frame_length", "op": "Const", "attr": {"value": {"tensor": {"dtype": "DT_INT32", "tensorShape": {}}}, "dtype": {"type": "DT_INT32"}}}, {"name": "StatefulPartitionedCall/simplified_model_with_melspec/normalized_spectrogram_model/tf.signal.stft_1/stft/frame/packed", "op": "Const", "attr": {"value": {"tensor": {"dtype": "DT_INT32", "tensorShape": {"dim": [{"size": "3"}]}}}, "dtype": {"type": "DT_INT32"}}}, {"name": "StatefulPartitionedCall/simplified_model_with_melspec/normalized_spectrogram_model/tf.signal.stft_1/stft/frame/split/split_dim", "op": "Const", "attr": {"value": {"tensor": {"dtype": "DT_INT32", "tensorShape": {}}}, "dtype": {"type": "DT_INT32"}}}, {"name": "StatefulPartitionedCall/simplified_model_with_melspec/normalized_spectrogram_model/tf.signal.stft_1/stft/frame/concat_3/axis", "op": "Const", "attr": {"value": {"tensor": {"dtype": "DT_INT32", "tensorShape": {}}}, "dtype": {"type": "DT_INT32"}}}, {"name": "StatefulPartitionedCall/simplified_model_with_melspec/normalized_spectrogram_model/tf.signal.stft_1/stft/hann_window/sub_2", "op": "Const", "attr": {"value": {"tensor": {"dtype": "DT_FLOAT", "tensorShape": {"dim": [{"size": "512"}]}}}, "dtype": {"type": "DT_FLOAT"}}}, {"name": "StatefulPartitionedCall/simplified_model_with_melspec/normalized_spectrogram_model/tf.signal.stft_1/stft/rfft/fft_length", "op": "Const", "attr": {"value": {"tensor": {"dtype": "DT_INT32", "tensorShape": {"dim": [{"size": "1"}]}}}, "dtype": {"type": "DT_INT32"}}}, {"name": "StatefulPartitionedCall/simplified_model_with_melspec/normalized_spectrogram_model/tf.tensordot_1/Tensordot/free", "op": "Const", "attr": {"value": {"tensor": {"dtype": "DT_INT32", "tensorShape": {"dim": [{"size": "2"}]}}}, "dtype": {"type": "DT_INT32"}}}, {"name": "StatefulPartitionedCall/simplified_model_with_melspec/normalized_spectrogram_model/tf.tensordot_1/Tensordot/GatherV2/axis", "op": "Const", "attr": {"value": {"tensor": {"dtype": "DT_INT32", "tensorShape": {}}}, "dtype": {"type": "DT_INT32"}}}, {"name": "StatefulPartitionedCall/simplified_model_with_melspec/normalized_spectrogram_model/tf.tensordot_1/Tensordot/Const_2", "op": "Const", "attr": {"value": {"tensor": {"dtype": "DT_INT32", "tensorShape": {"dim": [{"size": "1"}]}}}, "dtype": {"type": "DT_INT32"}}}, {"name": "StatefulPartitionedCall/simplified_model_with_melspec/normalized_spectrogram_model/tf.tensordot_1/Tensordot/concat_1/axis", "op": "Const", "attr": {"value": {"tensor": {"dtype": "DT_INT32", "tensorShape": {}}}, "dtype": {"type": "DT_INT32"}}}, {"name": "StatefulPartitionedCall/simplified_model_with_melspec/normalized_spectrogram_model/tf.__operators__.add_1/y", "op": "Const", "attr": {"value": {"tensor": {"dtype": "DT_FLOAT", "tensorShape": {}}}, "dtype": {"type": "DT_FLOAT"}}}, {"name": "StatefulPartitionedCall/simplified_model_with_melspec/normalized_spectrogram_model/tf.math.reduce_std_1/reduce_std/reduce_variance/Const", "op": "Const", "attr": {"value": {"tensor": {"dtype": "DT_INT32", "tensorShape": {"dim": [{"size": "3"}]}}}, "dtype": {"type": "DT_INT32"}}}, {"name": "StatefulPartitionedCall/simplified_model_with_melspec/normalized_spectrogram_model/tf.math.reduce_std_1/reduce_std/reduce_variance/Const_1", "op": "Const", "attr": {"value": {"tensor": {"dtype": "DT_INT32", "tensorShape": {"dim": [{"size": "3"}]}}}, "dtype": {"type": "DT_INT32"}}}, {"name": "StatefulPartitionedCall/simplified_model_with_melspec/tf.expand_dims/ExpandDims/dim", "op": "Const", "attr": {"value": {"tensor": {"dtype": "DT_INT32", "tensorShape": {}}}, "dtype": {"type": "DT_INT32"}}}, {"name": "StatefulPartitionedCall/simplified_model_with_melspec/conv2d/Conv2D/ReadVariableOp", "op": "Const", "attr": {"value": {"tensor": {"dtype": "DT_FLOAT", "tensorShape": {"dim": [{"size": "5"}, {"size": "1"}, {"size": "1"}, {"size": "10"}]}}}, "dtype": {"type": "DT_FLOAT"}}}, {"name": "StatefulPartitionedCall/simplified_model_with_melspec/conv2d/BiasAdd/ReadVariableOp", "op": "Const", "attr": {"value": {"tensor": {"dtype": "DT_FLOAT", "tensorShape": {"dim": [{"size": "10"}]}}}, "dtype": {"type": "DT_FLOAT"}}}, {"name": "StatefulPartitionedCall/simplified_model_with_melspec/conv2d_1/Conv2D/ReadVariableOp", "op": "Const", "attr": {"value": {"tensor": {"dtype": "DT_FLOAT", "tensorShape": {"dim": [{"size": "5"}, {"size": "1"}, {"size": "10"}, {"size": "1"}]}}}, "dtype": {"type": "DT_FLOAT"}}}, {"name": "StatefulPartitionedCall/simplified_model_with_melspec/conv2d_1/BiasAdd/ReadVariableOp", "op": "Const", "attr": {"value": {"tensor": {"dtype": "DT_FLOAT", "tensorShape": {"dim": [{"size": "1"}]}}}, "dtype": {"type": "DT_FLOAT"}}}, {"name": "StatefulPartitionedCall/simplified_model_with_melspec/bidirectional/backward_lstm/PartitionedCall/transpose/perm", "op": "Const", "attr": {"value": {"tensor": {"dtype": "DT_INT32", "tensorShape": {"dim": [{"size": "3"}]}}}, "dtype": {"type": "DT_INT32"}}}, {"name": "StatefulPartitionedCall/simplified_model_with_melspec/bidirectional/backward_lstm/PartitionedCall/strided_slice/stack", "op": "Const", "attr": {"value": {"tensor": {"dtype": "DT_INT32", "tensorShape": {"dim": [{"size": "1"}]}}}, "dtype": {"type": "DT_INT32"}}}, {"name": "StatefulPartitionedCall/simplified_model_with_melspec/bidirectional/backward_lstm/PartitionedCall/strided_slice/stack_1", "op": "Const", "attr": {"value": {"tensor": {"dtype": "DT_INT32", "tensorShape": {"dim": [{"size": "1"}]}}}, "dtype": {"type": "DT_INT32"}}}, {"name": "StatefulPartitionedCall/simplified_model_with_melspec/bidirectional/backward_lstm/PartitionedCall/strided_slice/stack_2", "op": "Const", "attr": {"value": {"tensor": {"dtype": "DT_INT32", "tensorShape": {"dim": [{"size": "1"}]}}}, "dtype": {"type": "DT_INT32"}}}, {"name": "StatefulPartitionedCall/simplified_model_with_melspec/bidirectional/backward_lstm/PartitionedCall/while/loop_counter", "op": "Const", "attr": {"value": {"tensor": {"dtype": "DT_INT32", "tensorShape": {}}}, "dtype": {"type": "DT_INT32"}}}, {"name": "StatefulPartitionedCall/simplified_model_with_melspec/bidirectional/backward_lstm/PartitionedCall/TensorArrayV2Stack/TensorListStack/element_shape", "op": "Const", "attr": {"value": {"tensor": {"dtype": "DT_INT32", "tensorShape": {"dim": [{"size": "2"}]}}}, "dtype": {"type": "DT_INT32"}}}, {"name": "StatefulPartitionedCall/simplified_model_with_melspec/bidirectional/backward_lstm/PartitionedCall/transpose_1/perm", "op": "Const", "attr": {"value": {"tensor": {"dtype": "DT_INT32", "tensorShape": {"dim": [{"size": "3"}]}}}, "dtype": {"type": "DT_INT32"}}}, {"name": "StatefulPartitionedCall/simplified_model_with_melspec/bidirectional/ReverseV2/axis", "op": "Const", "attr": {"value": {"tensor": {"dtype": "DT_INT32", "tensorShape": {"dim": [{"size": "1"}]}}}, "dtype": {"type": "DT_INT32"}}}, {"name": "StatefulPartitionedCall/simplified_model_with_melspec/bidirectional/concat/axis", "op": "Const", "attr": {"value": {"tensor": {"dtype": "DT_INT32", "tensorShape": {}}}, "dtype": {"type": "DT_INT32"}}}, {"name": "StatefulPartitionedCall/simplified_model_with_melspec/bidirectional_1/backward_lstm_1/PartitionedCall/transpose/perm", "op": "Const", "attr": {"value": {"tensor": {"dtype": "DT_INT32", "tensorShape": {"dim": [{"size": "3"}]}}}, "dtype": {"type": "DT_INT32"}}}, {"name": "StatefulPartitionedCall/simplified_model_with_melspec/bidirectional_1/backward_lstm_1/PartitionedCall/strided_slice/stack", "op": "Const", "attr": {"value": {"tensor": {"dtype": "DT_INT32", "tensorShape": {"dim": [{"size": "1"}]}}}, "dtype": {"type": "DT_INT32"}}}, {"name": "StatefulPartitionedCall/simplified_model_with_melspec/bidirectional_1/backward_lstm_1/PartitionedCall/strided_slice/stack_1", "op": "Const", "attr": {"value": {"tensor": {"dtype": "DT_INT32", "tensorShape": {"dim": [{"size": "1"}]}}}, "dtype": {"type": "DT_INT32"}}}, {"name": "StatefulPartitionedCall/simplified_model_with_melspec/bidirectional_1/backward_lstm_1/PartitionedCall/strided_slice/stack_2", "op": "Const", "attr": {"value": {"tensor": {"dtype": "DT_INT32", "tensorShape": {"dim": [{"size": "1"}]}}}, "dtype": {"type": "DT_INT32"}}}, {"name": "StatefulPartitionedCall/simplified_model_with_melspec/bidirectional_1/backward_lstm_1/PartitionedCall/while/loop_counter", "op": "Const", "attr": {"value": {"tensor": {"dtype": "DT_INT32", "tensorShape": {}}}, "dtype": {"type": "DT_INT32"}}}, {"name": "StatefulPartitionedCall/simplified_model_with_melspec/bidirectional_1/backward_lstm_1/PartitionedCall/TensorArrayV2Stack/TensorListStack/element_shape", "op": "Const", "attr": {"value": {"tensor": {"dtype": "DT_INT32", "tensorShape": {"dim": [{"size": "2"}]}}}, "dtype": {"type": "DT_INT32"}}}, {"name": "StatefulPartitionedCall/simplified_model_with_melspec/bidirectional_1/backward_lstm_1/PartitionedCall/transpose_1/perm", "op": "Const", "attr": {"value": {"tensor": {"dtype": "DT_INT32", "tensorShape": {"dim": [{"size": "3"}]}}}, "dtype": {"type": "DT_INT32"}}}, {"name": "StatefulPartitionedCall/simplified_model_with_melspec/bidirectional_1/ReverseV2/axis", "op": "Const", "attr": {"value": {"tensor": {"dtype": "DT_INT32", "tensorShape": {"dim": [{"size": "1"}]}}}, "dtype": {"type": "DT_INT32"}}}, {"name": "StatefulPartitionedCall/simplified_model_with_melspec/bidirectional_1/concat/axis", "op": "Const", "attr": {"value": {"tensor": {"dtype": "DT_INT32", "tensorShape": {}}}, "dtype": {"type": "DT_INT32"}}}, {"name": "StatefulPartitionedCall/simplified_model_with_melspec/dense_1/MatMul/ReadVariableOp", "op": "Const", "attr": {"value": {"tensor": {"dtype": "DT_FLOAT", "tensorShape": {"dim": [{"size": "128"}, {"size": "64"}]}}}, "dtype": {"type": "DT_FLOAT"}}}, {"name": "StatefulPartitionedCall/simplified_model_with_melspec/dense_1/BiasAdd/ReadVariableOp", "op": "Const", "attr": {"value": {"tensor": {"dtype": "DT_FLOAT", "tensorShape": {"dim": [{"size": "64"}]}}}, "dtype": {"type": "DT_FLOAT"}}}, {"name": "StatefulPartitionedCall/simplified_model_with_melspec/dense_2/MatMul/ReadVariableOp", "op": "Const", "attr": {"value": {"tensor": {"dtype": "DT_FLOAT", "tensorShape": {"dim": [{"size": "64"}, {"size": "32"}]}}}, "dtype": {"type": "DT_FLOAT"}}}, {"name": "StatefulPartitionedCall/simplified_model_with_melspec/dense_2/BiasAdd/ReadVariableOp", "op": "Const", "attr": {"value": {"tensor": {"dtype": "DT_FLOAT", "tensorShape": {"dim": [{"size": "32"}]}}}, "dtype": {"type": "DT_FLOAT"}}}, {"name": "StatefulPartitionedCall/simplified_model_with_melspec/dense_3/MatMul/ReadVariableOp", "op": "Const", "attr": {"value": {"tensor": {"dtype": "DT_FLOAT", "tensorShape": {"dim": [{"size": "32"}, {"size": "9"}]}}}, "dtype": {"type": "DT_FLOAT"}}}, {"name": "StatefulPartitionedCall/simplified_model_with_melspec/dense_3/BiasAdd/ReadVariableOp", "op": "Const", "attr": {"value": {"tensor": {"dtype": "DT_FLOAT", "tensorShape": {"dim": [{"size": "9"}]}}}, "dtype": {"type": "DT_FLOAT"}}}, {"name": "input", "op": "Placeholder", "attr": {"shape": {"shape": {"dim": [{"size": "-1"}, {"size": "16000"}, {"size": "1"}]}}, "dtype": {"type": "DT_FLOAT"}}}, {"name": "StatefulPartitionedCall/simplified_model_with_melspec/batch_normalization_1/FusedBatchNormV3/Scaled", "op": "Const", "attr": {"value": {"tensor": {"dtype": "DT_FLOAT", "tensorShape": {"dim": [{"size": "1"}]}}}, "dtype": {"type": "DT_FLOAT"}}}, {"name": "StatefulPartitionedCall/simplified_model_with_melspec/batch_normalization_1/FusedBatchNormV3/Offset", "op": "Const", "attr": {"value": {"tensor": {"dtype": "DT_FLOAT", "tensorShape": {"dim": [{"size": "1"}]}}}, "dtype": {"type": "DT_FLOAT"}}}, {"name": "StatefulPartitionedCall/simplified_model_with_melspec/batch_normalization/FusedBatchNormV3/Scaled", "op": "Const", "attr": {"value": {"tensor": {"dtype": "DT_FLOAT", "tensorShape": {"dim": [{"size": "10"}]}}}, "dtype": {"type": "DT_FLOAT"}}}, {"name": "StatefulPartitionedCall/simplified_model_with_melspec/batch_normalization/FusedBatchNormV3/Offset", "op": "Const", "attr": {"value": {"tensor": {"dtype": "DT_FLOAT", "tensorShape": {"dim": [{"size": "10"}]}}}, "dtype": {"type": "DT_FLOAT"}}}, {"name": "StatefulPartitionedCall/simplified_model_with_melspec/bidirectional_1/forward_lstm_1/PartitionedCall/while/enter/_210", "op": "Enter", "input": ["StatefulPartitionedCall/simplified_model_with_melspec/bidirectional_1/forward_lstm_1/Read/ReadVariableOp"], "attr": {"is_constant": {"b": false}, "frame_name": {"s": "U3RhdGVmdWxQYXJ0aXRpb25lZENhbGwvc2ltcGxpZmllZF9tb2RlbF93aXRoX21lbHNwZWMvYmlkaXJlY3Rpb25hbF8xL2ZvcndhcmRfbHN0bV8xL1BhcnRpdGlvbmVkQ2FsbC93aGlsZQ=="}, "T": {"type": "DT_FLOAT"}, "parallel_iterations": {"i": "32"}}}, {"name": "StatefulPartitionedCall/simplified_model_with_melspec/bidirectional_1/forward_lstm_1/PartitionedCall/while/enter/_211", "op": "Enter", "input": ["StatefulPartitionedCall/simplified_model_with_melspec/bidirectional_1/forward_lstm_1/Read_1/ReadVariableOp"], "attr": {"is_constant": {"b": false}, "frame_name": {"s": "U3RhdGVmdWxQYXJ0aXRpb25lZENhbGwvc2ltcGxpZmllZF9tb2RlbF93aXRoX21lbHNwZWMvYmlkaXJlY3Rpb25hbF8xL2ZvcndhcmRfbHN0bV8xL1BhcnRpdGlvbmVkQ2FsbC93aGlsZQ=="}, "T": {"type": "DT_FLOAT"}, "parallel_iterations": {"i": "32"}}}, {"name": "StatefulPartitionedCall/simplified_model_with_melspec/bidirectional_1/forward_lstm_1/PartitionedCall/while/enter/_212", "op": "Enter", "input": ["StatefulPartitionedCall/simplified_model_with_melspec/bidirectional_1/forward_lstm_1/Read_2/ReadVariableOp"], "attr": {"is_constant": {"b": false}, "frame_name": {"s": "U3RhdGVmdWxQYXJ0aXRpb25lZENhbGwvc2ltcGxpZmllZF9tb2RlbF93aXRoX21lbHNwZWMvYmlkaXJlY3Rpb25hbF8xL2ZvcndhcmRfbHN0bV8xL1BhcnRpdGlvbmVkQ2FsbC93aGlsZQ=="}, "T": {"type": "DT_FLOAT"}, "parallel_iterations": {"i": "32"}}}, {"name": "StatefulPartitionedCall/simplified_model_with_melspec/bidirectional_1/forward_lstm_1/PartitionedCall/while/enter/_204", "op": "Enter", "input": ["StatefulPartitionedCall/simplified_model_with_melspec/bidirectional_1/forward_lstm_1/PartitionedCall/time"], "attr": {"is_constant": {"b": false}, "frame_name": {"s": "U3RhdGVmdWxQYXJ0aXRpb25lZENhbGwvc2ltcGxpZmllZF9tb2RlbF93aXRoX21lbHNwZWMvYmlkaXJlY3Rpb25hbF8xL2ZvcndhcmRfbHN0bV8xL1BhcnRpdGlvbmVkQ2FsbC93aGlsZQ=="}, "T": {"type": "DT_INT32"}, "parallel_iterations": {"i": "32"}}}, {"name": "StatefulPartitionedCall/simplified_model_with_melspec/bidirectional_1/forward_lstm_1/PartitionedCall/while/enter/_202", "op": "Enter", "input": ["StatefulPartitionedCall/simplified_model_with_melspec/bidirectional_1/forward_lstm_1/PartitionedCall/while/loop_counter"], "attr": {"is_constant": {"b": false}, "frame_name": {"s": "U3RhdGVmdWxQYXJ0aXRpb25lZENhbGwvc2ltcGxpZmllZF9tb2RlbF93aXRoX21lbHNwZWMvYmlkaXJlY3Rpb25hbF8xL2ZvcndhcmRfbHN0bV8xL1BhcnRpdGlvbmVkQ2FsbC93aGlsZQ=="}, "T": {"type": "DT_INT32"}, "parallel_iterations": {"i": "32"}}}, {"name": "StatefulPartitionedCall/simplified_model_with_melspec/bidirectional_1/backward_lstm_1/PartitionedCall/while/enter/_270", "op": "Enter", "input": ["StatefulPartitionedCall/simplified_model_with_melspec/bidirectional_1/backward_lstm_1/Read/ReadVariableOp"], "attr": {"is_constant": {"b": false}, "frame_name": {"s": "U3RhdGVmdWxQYXJ0aXRpb25lZENhbGwvc2ltcGxpZmllZF9tb2RlbF93aXRoX21lbHNwZWMvYmlkaXJlY3Rpb25hbF8xL2JhY2t3YXJkX2xzdG1fMS9QYXJ0aXRpb25lZENhbGwvd2hpbGU="}, "T": {"type": "DT_FLOAT"}, "parallel_iterations": {"i": "32"}}}, {"name": "StatefulPartitionedCall/simplified_model_with_melspec/bidirectional_1/backward_lstm_1/PartitionedCall/while/enter/_271", "op": "Enter", "input": ["StatefulPartitionedCall/simplified_model_with_melspec/bidirectional_1/backward_lstm_1/Read_1/ReadVariableOp"], "attr": {"is_constant": {"b": false}, "frame_name": {"s": "U3RhdGVmdWxQYXJ0aXRpb25lZENhbGwvc2ltcGxpZmllZF9tb2RlbF93aXRoX21lbHNwZWMvYmlkaXJlY3Rpb25hbF8xL2JhY2t3YXJkX2xzdG1fMS9QYXJ0aXRpb25lZENhbGwvd2hpbGU="}, "T": {"type": "DT_FLOAT"}, "parallel_iterations": {"i": "32"}}}, {"name": "StatefulPartitionedCall/simplified_model_with_melspec/bidirectional_1/backward_lstm_1/PartitionedCall/while/enter/_272", "op": "Enter", "input": ["StatefulPartitionedCall/simplified_model_with_melspec/bidirectional_1/backward_lstm_1/Read_2/ReadVariableOp"], "attr": {"is_constant": {"b": false}, "frame_name": {"s": "U3RhdGVmdWxQYXJ0aXRpb25lZENhbGwvc2ltcGxpZmllZF9tb2RlbF93aXRoX21lbHNwZWMvYmlkaXJlY3Rpb25hbF8xL2JhY2t3YXJkX2xzdG1fMS9QYXJ0aXRpb25lZENhbGwvd2hpbGU="}, "T": {"type": "DT_FLOAT"}, "parallel_iterations": {"i": "32"}}}, {"name": "StatefulPartitionedCall/simplified_model_with_melspec/bidirectional_1/backward_lstm_1/PartitionedCall/while/enter/_264", "op": "Enter", "input": ["StatefulPartitionedCall/simplified_model_with_melspec/bidirectional_1/backward_lstm_1/PartitionedCall/time"], "attr": {"is_constant": {"b": false}, "frame_name": {"s": "U3RhdGVmdWxQYXJ0aXRpb25lZENhbGwvc2ltcGxpZmllZF9tb2RlbF93aXRoX21lbHNwZWMvYmlkaXJlY3Rpb25hbF8xL2JhY2t3YXJkX2xzdG1fMS9QYXJ0aXRpb25lZENhbGwvd2hpbGU="}, "T": {"type": "DT_INT32"}, "parallel_iterations": {"i": "32"}}}, {"name": "StatefulPartitionedCall/simplified_model_with_melspec/bidirectional/forward_lstm/PartitionedCall/while/enter/_90", "op": "Enter", "input": ["StatefulPartitionedCall/simplified_model_with_melspec/bidirectional/forward_lstm/Read/ReadVariableOp"], "attr": {"is_constant": {"b": false}, "frame_name": {"s": "U3RhdGVmdWxQYXJ0aXRpb25lZENhbGwvc2ltcGxpZmllZF9tb2RlbF93aXRoX21lbHNwZWMvYmlkaXJlY3Rpb25hbC9mb3J3YXJkX2xzdG0vUGFydGl0aW9uZWRDYWxsL3doaWxl"}, "T": {"type": "DT_FLOAT"}, "parallel_iterations": {"i": "32"}}}, {"name": "StatefulPartitionedCall/simplified_model_with_melspec/bidirectional/forward_lstm/PartitionedCall/while/enter/_91", "op": "Enter", "input": ["StatefulPartitionedCall/simplified_model_with_melspec/bidirectional/forward_lstm/Read_1/ReadVariableOp"], "attr": {"is_constant": {"b": false}, "frame_name": {"s": "U3RhdGVmdWxQYXJ0aXRpb25lZENhbGwvc2ltcGxpZmllZF9tb2RlbF93aXRoX21lbHNwZWMvYmlkaXJlY3Rpb25hbC9mb3J3YXJkX2xzdG0vUGFydGl0aW9uZWRDYWxsL3doaWxl"}, "T": {"type": "DT_FLOAT"}, "parallel_iterations": {"i": "32"}}}, {"name": "StatefulPartitionedCall/simplified_model_with_melspec/bidirectional/forward_lstm/PartitionedCall/while/enter/_92", "op": "Enter", "input": ["StatefulPartitionedCall/simplified_model_with_melspec/bidirectional/forward_lstm/Read_2/ReadVariableOp"], "attr": {"is_constant": {"b": false}, "frame_name": {"s": "U3RhdGVmdWxQYXJ0aXRpb25lZENhbGwvc2ltcGxpZmllZF9tb2RlbF93aXRoX21lbHNwZWMvYmlkaXJlY3Rpb25hbC9mb3J3YXJkX2xzdG0vUGFydGl0aW9uZWRDYWxsL3doaWxl"}, "T": {"type": "DT_FLOAT"}, "parallel_iterations": {"i": "32"}}}, {"name": "StatefulPartitionedCall/simplified_model_with_melspec/bidirectional/forward_lstm/PartitionedCall/while/enter/_84", "op": "Enter", "input": ["StatefulPartitionedCall/simplified_model_with_melspec/bidirectional/forward_lstm/PartitionedCall/time"], "attr": {"is_constant": {"b": false}, "frame_name": {"s": "U3RhdGVmdWxQYXJ0aXRpb25lZENhbGwvc2ltcGxpZmllZF9tb2RlbF93aXRoX21lbHNwZWMvYmlkaXJlY3Rpb25hbC9mb3J3YXJkX2xzdG0vUGFydGl0aW9uZWRDYWxsL3doaWxl"}, "T": {"type": "DT_INT32"}, "parallel_iterations": {"i": "32"}}}, {"name": "StatefulPartitionedCall/simplified_model_with_melspec/bidirectional/forward_lstm/PartitionedCall/while/enter/_82", "op": "Enter", "input": ["StatefulPartitionedCall/simplified_model_with_melspec/bidirectional/forward_lstm/PartitionedCall/while/loop_counter"], "attr": {"is_constant": {"b": false}, "frame_name": {"s": "U3RhdGVmdWxQYXJ0aXRpb25lZENhbGwvc2ltcGxpZmllZF9tb2RlbF93aXRoX21lbHNwZWMvYmlkaXJlY3Rpb25hbC9mb3J3YXJkX2xzdG0vUGFydGl0aW9uZWRDYWxsL3doaWxl"}, "T": {"type": "DT_INT32"}, "parallel_iterations": {"i": "32"}}}, {"name": "StatefulPartitionedCall/simplified_model_with_melspec/bidirectional/backward_lstm/PartitionedCall/while/enter/_150", "op": "Enter", "input": ["StatefulPartitionedCall/simplified_model_with_melspec/bidirectional/backward_lstm/Read/ReadVariableOp"], "attr": {"is_constant": {"b": false}, "frame_name": {"s": "U3RhdGVmdWxQYXJ0aXRpb25lZENhbGwvc2ltcGxpZmllZF9tb2RlbF93aXRoX21lbHNwZWMvYmlkaXJlY3Rpb25hbC9iYWNrd2FyZF9sc3RtL1BhcnRpdGlvbmVkQ2FsbC93aGlsZQ=="}, "T": {"type": "DT_FLOAT"}, "parallel_iterations": {"i": "32"}}}, {"name": "StatefulPartitionedCall/simplified_model_with_melspec/bidirectional/backward_lstm/PartitionedCall/while/enter/_151", "op": "Enter", "input": ["StatefulPartitionedCall/simplified_model_with_melspec/bidirectional/backward_lstm/Read_1/ReadVariableOp"], "attr": {"is_constant": {"b": false}, "frame_name": {"s": "U3RhdGVmdWxQYXJ0aXRpb25lZENhbGwvc2ltcGxpZmllZF9tb2RlbF93aXRoX21lbHNwZWMvYmlkaXJlY3Rpb25hbC9iYWNrd2FyZF9sc3RtL1BhcnRpdGlvbmVkQ2FsbC93aGlsZQ=="}, "T": {"type": "DT_FLOAT"}, "parallel_iterations": {"i": "32"}}}, {"name": "StatefulPartitionedCall/simplified_model_with_melspec/bidirectional/backward_lstm/PartitionedCall/while/enter/_152", "op": "Enter", "input": ["StatefulPartitionedCall/simplified_model_with_melspec/bidirectional/backward_lstm/Read_2/ReadVariableOp"], "attr": {"is_constant": {"b": false}, "frame_name": {"s": "U3RhdGVmdWxQYXJ0aXRpb25lZENhbGwvc2ltcGxpZmllZF9tb2RlbF93aXRoX21lbHNwZWMvYmlkaXJlY3Rpb25hbC9iYWNrd2FyZF9sc3RtL1BhcnRpdGlvbmVkQ2FsbC93aGlsZQ=="}, "T": {"type": "DT_FLOAT"}, "parallel_iterations": {"i": "32"}}}, {"name": "StatefulPartitionedCall/simplified_model_with_melspec/bidirectional/backward_lstm/PartitionedCall/while/enter/_144", "op": "Enter", "input": ["StatefulPartitionedCall/simplified_model_with_melspec/bidirectional/backward_lstm/PartitionedCall/time"], "attr": {"is_constant": {"b": false}, "frame_name": {"s": "U3RhdGVmdWxQYXJ0aXRpb25lZENhbGwvc2ltcGxpZmllZF9tb2RlbF93aXRoX21lbHNwZWMvYmlkaXJlY3Rpb25hbC9iYWNrd2FyZF9sc3RtL1BhcnRpdGlvbmVkQ2FsbC93aGlsZQ=="}, "T": {"type": "DT_INT32"}, "parallel_iterations": {"i": "32"}}}, {"name": "StatefulPartitionedCall/simplified_model_with_melspec/bidirectional/backward_lstm/PartitionedCall/while/enter/_142", "op": "Enter", "input": ["StatefulPartitionedCall/simplified_model_with_melspec/bidirectional/backward_lstm/PartitionedCall/while/loop_counter"], "attr": {"is_constant": {"b": false}, "frame_name": {"s": "U3RhdGVmdWxQYXJ0aXRpb25lZENhbGwvc2ltcGxpZmllZF9tb2RlbF93aXRoX21lbHNwZWMvYmlkaXJlY3Rpb25hbC9iYWNrd2FyZF9sc3RtL1BhcnRpdGlvbmVkQ2FsbC93aGlsZQ=="}, "T": {"type": "DT_INT32"}, "parallel_iterations": {"i": "32"}}}, {"name": "StatefulPartitionedCall/simplified_model_with_melspec/bidirectional_1/backward_lstm_1/PartitionedCall/while/enter/_262", "op": "Enter", "input": ["StatefulPartitionedCall/simplified_model_with_melspec/bidirectional_1/backward_lstm_1/PartitionedCall/while/loop_counter"], "attr": {"is_constant": {"b": false}, "frame_name": {"s": "U3RhdGVmdWxQYXJ0aXRpb25lZENhbGwvc2ltcGxpZmllZF9tb2RlbF93aXRoX21lbHNwZWMvYmlkaXJlY3Rpb25hbF8xL2JhY2t3YXJkX2xzdG1fMS9QYXJ0aXRpb25lZENhbGwvd2hpbGU="}, "T": {"type": "DT_INT32"}, "parallel_iterations": {"i": "32"}}}, {"name": "StatefulPartitionedCall/simplified_model_with_melspec/normalized_spectrogram_model/Squeeze", "op": "Squeeze", "input": ["input"], "attr": {"T": {"type": "DT_FLOAT"}, "squeeze_dims": {"list": {"i": ["-1"]}}}}, {"name": "StatefulPartitionedCall/simplified_model_with_melspec/bidirectional_1/forward_lstm_1/PartitionedCall/while/merge/_221", "op": "Merge", "input": ["StatefulPartitionedCall/simplified_model_with_melspec/bidirectional_1/forward_lstm_1/PartitionedCall/while/enter/_210", "StatefulPartitionedCall/simplified_model_with_melspec/bidirectional_1/forward_lstm_1/PartitionedCall/while/next_iteration/_257"], "attr": {"N": {"i": "2"}, "T": {"type": "DT_FLOAT"}}}, {"name": "StatefulPartitionedCall/simplified_model_with_melspec/bidirectional_1/forward_lstm_1/PartitionedCall/while/merge/_222", "op": "Merge", "input": ["StatefulPartitionedCall/simplified_model_with_melspec/bidirectional_1/forward_lstm_1/PartitionedCall/while/enter/_211", "StatefulPartitionedCall/simplified_model_with_melspec/bidirectional_1/forward_lstm_1/PartitionedCall/while/next_iteration/_258"], "attr": {"N": {"i": "2"}, "T": {"type": "DT_FLOAT"}}}, {"name": "StatefulPartitionedCall/simplified_model_with_melspec/bidirectional_1/forward_lstm_1/PartitionedCall/while/merge/_223", "op": "Merge", "input": ["StatefulPartitionedCall/simplified_model_with_melspec/bidirectional_1/forward_lstm_1/PartitionedCall/while/enter/_212", "StatefulPartitionedCall/simplified_model_with_melspec/bidirectional_1/forward_lstm_1/PartitionedCall/while/next_iteration/_259"], "attr": {"N": {"i": "2"}, "T": {"type": "DT_FLOAT"}}}, {"name": "StatefulPartitionedCall/simplified_model_with_melspec/bidirectional_1/forward_lstm_1/PartitionedCall/while/merge/_215", "op": "Merge", "input": ["StatefulPartitionedCall/simplified_model_with_melspec/bidirectional_1/forward_lstm_1/PartitionedCall/while/enter/_204", "StatefulPartitionedCall/simplified_model_with_melspec/bidirectional_1/forward_lstm_1/PartitionedCall/while/next_iteration/_251"], "attr": {"N": {"i": "2"}, "T": {"type": "DT_INT32"}}}, {"name": "StatefulPartitionedCall/simplified_model_with_melspec/bidirectional_1/forward_lstm_1/PartitionedCall/while/merge/_213", "op": "Merge", "input": ["StatefulPartitionedCall/simplified_model_with_melspec/bidirectional_1/forward_lstm_1/PartitionedCall/while/enter/_202", "StatefulPartitionedCall/simplified_model_with_melspec/bidirectional_1/forward_lstm_1/PartitionedCall/while/next_iteration/_249"], "attr": {"N": {"i": "2"}, "_has_manual_control_dependencies": {"b": true}, "T": {"type": "DT_INT32"}}}, {"name": "StatefulPartitionedCall/simplified_model_with_melspec/bidirectional_1/backward_lstm_1/PartitionedCall/while/merge/_281", "op": "Merge", "input": ["StatefulPartitionedCall/simplified_model_with_melspec/bidirectional_1/backward_lstm_1/PartitionedCall/while/enter/_270", "StatefulPartitionedCall/simplified_model_with_melspec/bidirectional_1/backward_lstm_1/PartitionedCall/while/next_iteration/_317"], "attr": {"N": {"i": "2"}, "T": {"type": "DT_FLOAT"}}}, {"name": "StatefulPartitionedCall/simplified_model_with_melspec/bidirectional_1/backward_lstm_1/PartitionedCall/while/merge/_282", "op": "Merge", "input": ["StatefulPartitionedCall/simplified_model_with_melspec/bidirectional_1/backward_lstm_1/PartitionedCall/while/enter/_271", "StatefulPartitionedCall/simplified_model_with_melspec/bidirectional_1/backward_lstm_1/PartitionedCall/while/next_iteration/_318"], "attr": {"N": {"i": "2"}, "T": {"type": "DT_FLOAT"}}}, {"name": "StatefulPartitionedCall/simplified_model_with_melspec/bidirectional_1/backward_lstm_1/PartitionedCall/while/merge/_283", "op": "Merge", "input": ["StatefulPartitionedCall/simplified_model_with_melspec/bidirectional_1/backward_lstm_1/PartitionedCall/while/enter/_272", "StatefulPartitionedCall/simplified_model_with_melspec/bidirectional_1/backward_lstm_1/PartitionedCall/while/next_iteration/_319"], "attr": {"N": {"i": "2"}, "T": {"type": "DT_FLOAT"}}}, {"name": "StatefulPartitionedCall/simplified_model_with_melspec/bidirectional_1/backward_lstm_1/PartitionedCall/while/merge/_275", "op": "Merge", "input": ["StatefulPartitionedCall/simplified_model_with_melspec/bidirectional_1/backward_lstm_1/PartitionedCall/while/enter/_264", "StatefulPartitionedCall/simplified_model_with_melspec/bidirectional_1/backward_lstm_1/PartitionedCall/while/next_iteration/_311"], "attr": {"N": {"i": "2"}, "T": {"type": "DT_INT32"}}}, {"name": "StatefulPartitionedCall/simplified_model_with_melspec/bidirectional/forward_lstm/PartitionedCall/while/merge/_101", "op": "Merge", "input": ["StatefulPartitionedCall/simplified_model_with_melspec/bidirectional/forward_lstm/PartitionedCall/while/enter/_90", "StatefulPartitionedCall/simplified_model_with_melspec/bidirectional/forward_lstm/PartitionedCall/while/next_iteration/_137"], "attr": {"N": {"i": "2"}, "T": {"type": "DT_FLOAT"}}}, {"name": "StatefulPartitionedCall/simplified_model_with_melspec/bidirectional/forward_lstm/PartitionedCall/while/merge/_102", "op": "Merge", "input": ["StatefulPartitionedCall/simplified_model_with_melspec/bidirectional/forward_lstm/PartitionedCall/while/enter/_91", "StatefulPartitionedCall/simplified_model_with_melspec/bidirectional/forward_lstm/PartitionedCall/while/next_iteration/_138"], "attr": {"N": {"i": "2"}, "T": {"type": "DT_FLOAT"}}}, {"name": "StatefulPartitionedCall/simplified_model_with_melspec/bidirectional/forward_lstm/PartitionedCall/while/merge/_103", "op": "Merge", "input": ["StatefulPartitionedCall/simplified_model_with_melspec/bidirectional/forward_lstm/PartitionedCall/while/enter/_92", "StatefulPartitionedCall/simplified_model_with_melspec/bidirectional/forward_lstm/PartitionedCall/while/next_iteration/_139"], "attr": {"N": {"i": "2"}, "T": {"type": "DT_FLOAT"}}}, {"name": "StatefulPartitionedCall/simplified_model_with_melspec/bidirectional/forward_lstm/PartitionedCall/while/merge/_95", "op": "Merge", "input": ["StatefulPartitionedCall/simplified_model_with_melspec/bidirectional/forward_lstm/PartitionedCall/while/enter/_84", "StatefulPartitionedCall/simplified_model_with_melspec/bidirectional/forward_lstm/PartitionedCall/while/next_iteration/_131"], "attr": {"N": {"i": "2"}, "T": {"type": "DT_INT32"}}}, {"name": "StatefulPartitionedCall/simplified_model_with_melspec/bidirectional/forward_lstm/PartitionedCall/while/merge/_93", "op": "Merge", "input": ["StatefulPartitionedCall/simplified_model_with_melspec/bidirectional/forward_lstm/PartitionedCall/while/enter/_82", "StatefulPartitionedCall/simplified_model_with_melspec/bidirectional/forward_lstm/PartitionedCall/while/next_iteration/_129"], "attr": {"N": {"i": "2"}, "_has_manual_control_dependencies": {"b": true}, "T": {"type": "DT_INT32"}}}, {"name": "StatefulPartitionedCall/simplified_model_with_melspec/bidirectional/backward_lstm/PartitionedCall/while/merge/_161", "op": "Merge", "input": ["StatefulPartitionedCall/simplified_model_with_melspec/bidirectional/backward_lstm/PartitionedCall/while/enter/_150", "StatefulPartitionedCall/simplified_model_with_melspec/bidirectional/backward_lstm/PartitionedCall/while/next_iteration/_197"], "attr": {"N": {"i": "2"}, "T": {"type": "DT_FLOAT"}}}, {"name": "StatefulPartitionedCall/simplified_model_with_melspec/bidirectional/backward_lstm/PartitionedCall/while/merge/_162", "op": "Merge", "input": ["StatefulPartitionedCall/simplified_model_with_melspec/bidirectional/backward_lstm/PartitionedCall/while/enter/_151", "StatefulPartitionedCall/simplified_model_with_melspec/bidirectional/backward_lstm/PartitionedCall/while/next_iteration/_198"], "attr": {"N": {"i": "2"}, "T": {"type": "DT_FLOAT"}}}, {"name": "StatefulPartitionedCall/simplified_model_with_melspec/bidirectional/backward_lstm/PartitionedCall/while/merge/_163", "op": "Merge", "input": ["StatefulPartitionedCall/simplified_model_with_melspec/bidirectional/backward_lstm/PartitionedCall/while/enter/_152", "StatefulPartitionedCall/simplified_model_with_melspec/bidirectional/backward_lstm/PartitionedCall/while/next_iteration/_199"], "attr": {"N": {"i": "2"}, "T": {"type": "DT_FLOAT"}}}, {"name": "StatefulPartitionedCall/simplified_model_with_melspec/bidirectional/backward_lstm/PartitionedCall/while/merge/_155", "op": "Merge", "input": ["StatefulPartitionedCall/simplified_model_with_melspec/bidirectional/backward_lstm/PartitionedCall/while/enter/_144", "StatefulPartitionedCall/simplified_model_with_melspec/bidirectional/backward_lstm/PartitionedCall/while/next_iteration/_191"], "attr": {"N": {"i": "2"}, "T": {"type": "DT_INT32"}}}, {"name": "StatefulPartitionedCall/simplified_model_with_melspec/bidirectional/backward_lstm/PartitionedCall/while/merge/_153", "op": "Merge", "input": ["StatefulPartitionedCall/simplified_model_with_melspec/bidirectional/backward_lstm/PartitionedCall/while/enter/_142", "StatefulPartitionedCall/simplified_model_with_melspec/bidirectional/backward_lstm/PartitionedCall/while/next_iteration/_189"], "attr": {"N": {"i": "2"}, "_has_manual_control_dependencies": {"b": true}, "T": {"type": "DT_INT32"}}}, {"name": "StatefulPartitionedCall/simplified_model_with_melspec/bidirectional_1/backward_lstm_1/PartitionedCall/while/merge/_273", "op": "Merge", "input": ["StatefulPartitionedCall/simplified_model_with_melspec/bidirectional_1/backward_lstm_1/PartitionedCall/while/enter/_262", "StatefulPartitionedCall/simplified_model_with_melspec/bidirectional_1/backward_lstm_1/PartitionedCall/while/next_iteration/_309"], "attr": {"N": {"i": "2"}, "_has_manual_control_dependencies": {"b": true}, "T": {"type": "DT_INT32"}}}, {"name": "StatefulPartitionedCall/simplified_model_with_melspec/normalized_spectrogram_model/tf.signal.stft_1/stft/frame/Shape", "op": "Shape", "input": ["StatefulPartitionedCall/simplified_model_with_melspec/normalized_spectrogram_model/Squeeze"], "attr": {"T": {"type": "DT_FLOAT"}, "out_type": {"type": "DT_INT32"}}, "experimentalType": {"typeId": "TFT_PRODUCT", "args": [{"typeId": "TFT_SHAPE_TENSOR", "args": [{"typeId": "TFT_INT32"}]}]}}, {"name": "StatefulPartitionedCall/simplified_model_with_melspec/normalized_spectrogram_model/tf.signal.stft_1/stft/frame/split", "op": "SplitV", "input": ["StatefulPartitionedCall/simplified_model_with_melspec/normalized_spectrogram_model/tf.signal.stft_1/stft/frame/Shape", "StatefulPartitionedCall/simplified_model_with_melspec/normalized_spectrogram_model/tf.signal.stft_1/stft/frame/packed", "StatefulPartitionedCall/simplified_model_with_melspec/normalized_spectrogram_model/tf.signal.stft_1/stft/frame/split/split_dim"], "attr": {"num_split": {"i": "3"}, "T": {"type": "DT_INT32"}, "Tlen": {"type": "DT_INT32"}}}, {"name": "StatefulPartitionedCall/simplified_model_with_melspec/normalized_spectrogram_model/tf.signal.stft_1/stft/frame/Reshape", "op": "Reshape", "input": ["StatefulPartitionedCall/simplified_model_with_melspec/normalized_spectrogram_model/tf.signal.stft_1/stft/frame/split:1", "StatefulPartitionedCall/simplified_model_with_melspec/normalized_spectrogram_model/tf.signal.stft_1/stft/frame/Reshape/shape_1"], "attr": {"T": {"type": "DT_INT32"}, "Tshape": {"type": "DT_INT32"}}}, {"name": "StatefulPartitionedCall/simplified_model_with_melspec/normalized_spectrogram_model/tf.signal.stft_1/stft/frame/Neg", "op": "Neg", "input": ["StatefulPartitionedCall/simplified_model_with_melspec/normalized_spectrogram_model/tf.signal.stft_1/stft/frame/Reshape"], "attr": {"T": {"type": "DT_INT32"}}}, {"name": "StatefulPartitionedCall/simplified_model_with_melspec/normalized_spectrogram_model/tf.signal.stft_1/stft/frame/floordiv", "op": "FloorDiv", "input": ["StatefulPartitionedCall/simplified_model_with_melspec/normalized_spectrogram_model/tf.signal.stft_1/stft/frame/Neg", "StatefulPartitionedCall/simplified_model_with_melspec/normalized_spectrogram_model/tf.signal.stft_1/stft/frame_step"], "attr": {"T": {"type": "DT_INT32"}}}, {"name": "StatefulPartitionedCall/simplified_model_with_melspec/normalized_spectrogram_model/tf.signal.stft_1/stft/frame/Neg_1", "op": "Neg", "input": ["StatefulPartitionedCall/simplified_model_with_melspec/normalized_spectrogram_model/tf.signal.stft_1/stft/frame/floordiv"], "attr": {"T": {"type": "DT_INT32"}}}, {"name": "StatefulPartitionedCall/simplified_model_with_melspec/normalized_spectrogram_model/tf.signal.stft_1/stft/frame/sub_2", "op": "Sub", "input": ["StatefulPartitionedCall/simplified_model_with_melspec/normalized_spectrogram_model/tf.signal.stft_1/stft/frame/Neg_1", "StatefulPartitionedCall/simplified_model_with_melspec/normalized_spectrogram_model/tf.signal.stft_1/stft/frame/sub_2/y"], "attr": {"T": {"type": "DT_INT32"}}}, {"name": "StatefulPartitionedCall/simplified_model_with_melspec/normalized_spectrogram_model/tf.signal.stft_1/stft/frame/range_1", "op": "Range", "input": ["StatefulPartitionedCall/simplified_model_with_melspec/normalized_spectrogram_model/tf.signal.stft_1/stft/frame/range_1/start", "StatefulPartitionedCall/simplified_model_with_melspec/normalized_spectrogram_model/tf.signal.stft_1/stft/frame/Neg_1", "StatefulPartitionedCall/simplified_model_with_melspec/normalized_spectrogram_model/tf.signal.stft_1/stft/frame/range_1/delta"], "attr": {"Tidx": {"type": "DT_INT32"}}}, {"name": "StatefulPartitionedCall/simplified_model_with_melspec/normalized_spectrogram_model/tf.signal.stft_1/stft/frame/Reshape_2/shape", "op": "Pack", "input": ["StatefulPartitionedCall/simplified_model_with_melspec/normalized_spectrogram_model/tf.signal.stft_1/stft/frame/Neg_1", "StatefulPartitionedCall/simplified_model_with_melspec/normalized_spectrogram_model/tf.signal.stft_1/stft/frame/Reshape_2/shape/1"], "attr": {"N": {"i": "2"}, "axis": {"i": "0"}, "T": {"type": "DT_INT32"}}}, {"name": "StatefulPartitionedCall/simplified_model_with_melspec/normalized_spectrogram_model/tf.signal.stft_1/stft/frame/packed_2", "op": "Pack", "input": ["StatefulPartitionedCall/simplified_model_with_melspec/normalized_spectrogram_model/tf.signal.stft_1/stft/frame/Neg_1", "StatefulPartitionedCall/simplified_model_with_melspec/normalized_spectrogram_model/tf.signal.stft_1/stft/frame_length"], "attr": {"N": {"i": "2"}, "axis": {"i": "0"}, "T": {"type": "DT_INT32"}}}, {"name": "StatefulPartitionedCall/simplified_model_with_melspec/normalized_spectrogram_model/tf.signal.stft_1/stft/frame/mul", "op": "Mul", "input": ["StatefulPartitionedCall/simplified_model_with_melspec/normalized_spectrogram_model/tf.signal.stft_1/stft/frame_step", "StatefulPartitionedCall/simplified_model_with_melspec/normalized_spectrogram_model/tf.signal.stft_1/stft/frame/sub_2"], "attr": {"T": {"type": "DT_INT32"}}}, {"name": "StatefulPartitionedCall/simplified_model_with_melspec/normalized_spectrogram_model/tf.signal.stft_1/stft/frame/mul_2", "op": "Mul", "input": ["StatefulPartitionedCall/simplified_model_with_melspec/normalized_spectrogram_model/tf.signal.stft_1/stft/frame/range_1", "StatefulPartitionedCall/simplified_model_with_melspec/normalized_spectrogram_model/tf.signal.stft_1/stft/frame/floordiv_2"], "attr": {"T": {"type": "DT_INT32"}}}, {"name": "StatefulPartitionedCall/simplified_model_with_melspec/normalized_spectrogram_model/tf.signal.stft_1/stft/frame/concat_3", "op": "ConcatV2", "input": ["StatefulPartitionedCall/simplified_model_with_melspec/normalized_spectrogram_model/tf.signal.stft_1/stft/frame/split", "StatefulPartitionedCall/simplified_model_with_melspec/normalized_spectrogram_model/tf.signal.stft_1/stft/frame/packed_2", "StatefulPartitionedCall/simplified_model_with_melspec/normalized_spectrogram_model/tf.signal.stft_1/stft/frame/split:2", "StatefulPartitionedCall/simplified_model_with_melspec/normalized_spectrogram_model/tf.signal.stft_1/stft/frame/concat_3/axis"], "attr": {"N": {"i": "3"}, "Tidx": {"type": "DT_INT32"}, "T": {"type": "DT_INT32"}}}, {"name": "StatefulPartitionedCall/simplified_model_with_melspec/normalized_spectrogram_model/tf.signal.stft_1/stft/frame/add", "op": "AddV2", "input": ["StatefulPartitionedCall/simplified_model_with_melspec/normalized_spectrogram_model/tf.signal.stft_1/stft/frame_length", "StatefulPartitionedCall/simplified_model_with_melspec/normalized_spectrogram_model/tf.signal.stft_1/stft/frame/mul"], "attr": {"T": {"type": "DT_INT32"}}}, {"name": "StatefulPartitionedCall/simplified_model_with_melspec/normalized_spectrogram_model/tf.signal.stft_1/stft/frame/Reshape_2", "op": "Reshape", "input": ["StatefulPartitionedCall/simplified_model_with_melspec/normalized_spectrogram_model/tf.signal.stft_1/stft/frame/mul_2", "StatefulPartitionedCall/simplified_model_with_melspec/normalized_spectrogram_model/tf.signal.stft_1/stft/frame/Reshape_2/shape"], "attr": {"T": {"type": "DT_INT32"}, "Tshape": {"type": "DT_INT32"}}}, {"name": "StatefulPartitionedCall/simplified_model_with_melspec/normalized_spectrogram_model/tf.signal.stft_1/stft/frame/sub_3", "op": "Sub", "input": ["StatefulPartitionedCall/simplified_model_with_melspec/normalized_spectrogram_model/tf.signal.stft_1/stft/frame/add", "StatefulPartitionedCall/simplified_model_with_melspec/normalized_spectrogram_model/tf.signal.stft_1/stft/frame/Reshape"], "attr": {"T": {"type": "DT_INT32"}}}, {"name": "StatefulPartitionedCall/simplified_model_with_melspec/normalized_spectrogram_model/tf.signal.stft_1/stft/frame/add_2", "op": "AddV2", "input": ["StatefulPartitionedCall/simplified_model_with_melspec/normalized_spectrogram_model/tf.signal.stft_1/stft/frame/Reshape_2", "StatefulPartitionedCall/simplified_model_with_melspec/normalized_spectrogram_model/tf.signal.stft_1/stft/frame/Reshape_3"], "attr": {"T": {"type": "DT_INT32"}}}, {"name": "StatefulPartitionedCall/simplified_model_with_melspec/normalized_spectrogram_model/tf.signal.stft_1/stft/frame/Maximum", "op": "Maximum", "input": ["StatefulPartitionedCall/simplified_model_with_melspec/normalized_spectrogram_model/tf.signal.stft_1/stft/frame/Maximum/x", "StatefulPartitionedCall/simplified_model_with_melspec/normalized_spectrogram_model/tf.signal.stft_1/stft/frame/sub_3"], "attr": {"T": {"type": "DT_INT32"}}}, {"name": "StatefulPartitionedCall/simplified_model_with_melspec/normalized_spectrogram_model/tf.signal.stft_1/stft/frame/packed_1/0", "op": "Pack", "input": ["StatefulPartitionedCall/simplified_model_with_melspec/normalized_spectrogram_model/tf.signal.stft_1/stft/frame/packed_1/0/0", "StatefulPartitionedCall/simplified_model_with_melspec/normalized_spectrogram_model/tf.signal.stft_1/stft/frame/Maximum"], "attr": {"N": {"i": "2"}, "axis": {"i": "0"}, "T": {"type": "DT_INT32"}}}, {"name": "ConstantFolding/StatefulPartitionedCall/simplified_model_with_melspec/normalized_spectrogram_model/tf.signal.stft_1/stft/frame/packed_1_const_axis", "op": "Const", "input": ["^StatefulPartitionedCall/simplified_model_with_melspec/normalized_spectrogram_model/tf.signal.stft_1/stft/frame/packed_1/0"], "attr": {"value": {"tensor": {"dtype": "DT_INT32", "tensorShape": {}}}, "dtype": {"type": "DT_INT32"}}}, {"name": "StatefulPartitionedCall/simplified_model_with_melspec/normalized_spectrogram_model/tf.signal.stft_1/stft/frame/packed_1", "op": "ExpandDims", "input": ["StatefulPartitionedCall/simplified_model_with_melspec/normalized_spectrogram_model/tf.signal.stft_1/stft/frame/packed_1/0", "ConstantFolding/StatefulPartitionedCall/simplified_model_with_melspec/normalized_spectrogram_model/tf.signal.stft_1/stft/frame/packed_1_const_axis"], "attr": {"Tdim": {"type": "DT_INT32"}, "T": {"type": "DT_INT32"}}}, {"name": "StatefulPartitionedCall/simplified_model_with_melspec/normalized_spectrogram_model/tf.signal.stft_1/stft/frame/concat", "op": "ConcatV2", "input": ["StatefulPartitionedCall/simplified_model_with_melspec/normalized_spectrogram_model/tf.signal.stft_1/stft/frame/zeros", "StatefulPartitionedCall/simplified_model_with_melspec/normalized_spectrogram_model/tf.signal.stft_1/stft/frame/packed_1", "StatefulPartitionedCall/simplified_model_with_melspec/normalized_spectrogram_model/tf.signal.stft_1/stft/frame/zeros_1", "StatefulPartitionedCall/simplified_model_with_melspec/normalized_spectrogram_model/tf.signal.stft_1/stft/frame/concat/axis"], "attr": {"N": {"i": "3"}, "Tidx": {"type": "DT_INT32"}, "T": {"type": "DT_INT32"}}}, {"name": "StatefulPartitionedCall/simplified_model_with_melspec/normalized_spectrogram_model/tf.signal.stft_1/stft/frame/PadV2", "op": "PadV2", "input": ["StatefulPartitionedCall/simplified_model_with_melspec/normalized_spectrogram_model/Squeeze", "StatefulPartitionedCall/simplified_model_with_melspec/normalized_spectrogram_model/tf.signal.stft_1/stft/frame/concat", "StatefulPartitionedCall/simplified_model_with_melspec/normalized_spectrogram_model/tf.signal.stft_1/stft/frame/Const"], "attr": {"Tpaddings": {"type": "DT_INT32"}, "T": {"type": "DT_FLOAT"}}}, {"name": "StatefulPartitionedCall/simplified_model_with_melspec/normalized_spectrogram_model/tf.signal.stft_1/stft/frame/Shape_1", "op": "Shape", "input": ["StatefulPartitionedCall/simplified_model_with_melspec/normalized_spectrogram_model/tf.signal.stft_1/stft/frame/PadV2"], "attr": {"T": {"type": "DT_FLOAT"}, "out_type": {"type": "DT_INT32"}}, "experimentalType": {"typeId": "TFT_PRODUCT", "args": [{"typeId": "TFT_SHAPE_TENSOR", "args": [{"typeId": "TFT_INT32"}]}]}}, {"name": "StatefulPartitionedCall/simplified_model_with_melspec/normalized_spectrogram_model/tf.signal.stft_1/stft/frame/strided_slice_1", "op": "StridedSlice", "input": ["StatefulPartitionedCall/simplified_model_with_melspec/normalized_spectrogram_model/tf.signal.stft_1/stft/frame/Shape_1", "StatefulPartitionedCall/simplified_model_with_melspec/normalized_spectrogram_model/tf.signal.stft_1/stft/frame/strided_slice_1/stack", "StatefulPartitionedCall/simplified_model_with_melspec/normalized_spectrogram_model/tf.signal.stft_1/stft/frame/strided_slice_1/stack_1", "StatefulPartitionedCall/simplified_model_with_melspec/normalized_spectrogram_model/tf.signal.stft_1/stft/frame/strided_slice_1/stack_2"], "attr": {"shrink_axis_mask": {"i": "1"}, "new_axis_mask": {"i": "0"}, "Index": {"type": "DT_INT32"}, "begin_mask": {"i": "0"}, "end_mask": {"i": "0"}, "T": {"type": "DT_INT32"}, "ellipsis_mask": {"i": "0"}}}, {"name": "StatefulPartitionedCall/simplified_model_with_melspec/normalized_spectrogram_model/tf.signal.stft_1/stft/frame/floordiv_3", "op": "FloorDiv", "input": ["StatefulPartitionedCall/simplified_model_with_melspec/normalized_spectrogram_model/tf.signal.stft_1/stft/frame/strided_slice_1", "StatefulPartitionedCall/simplified_model_with_melspec/normalized_spectrogram_model/tf.signal.stft_1/stft/frame/floordiv_3/y"], "attr": {"T": {"type": "DT_INT32"}}}, {"name": "StatefulPartitionedCall/simplified_model_with_melspec/normalized_spectrogram_model/tf.signal.stft_1/stft/frame/mul_1", "op": "Mul", "input": ["StatefulPartitionedCall/simplified_model_with_melspec/normalized_spectrogram_model/tf.signal.stft_1/stft/frame/floordiv_3", "StatefulPartitionedCall/simplified_model_with_melspec/normalized_spectrogram_model/tf.signal.stft_1/stft/frame/mul_1/y"], "attr": {"T": {"type": "DT_INT32"}}}, {"name": "StatefulPartitionedCall/simplified_model_with_melspec/normalized_spectrogram_model/tf.signal.stft_1/stft/frame/concat_2/values_1", "op": "Pack", "input": ["StatefulPartitionedCall/simplified_model_with_melspec/normalized_spectrogram_model/tf.signal.stft_1/stft/frame/floordiv_3", "StatefulPartitionedCall/simplified_model_with_melspec/normalized_spectrogram_model/tf.signal.stft_1/stft/frame/concat_2/values_1/1"], "attr": {"N": {"i": "2"}, "axis": {"i": "0"}, "T": {"type": "DT_INT32"}}}, {"name": "ConstantFolding/StatefulPartitionedCall/simplified_model_with_melspec/normalized_spectrogram_model/tf.signal.stft_1/stft/frame/concat_1/values_1_const_axis", "op": "Const", "input": ["^StatefulPartitionedCall/simplified_model_with_melspec/normalized_spectrogram_model/tf.signal.stft_1/stft/frame/mul_1"], "attr": {"value": {"tensor": {"dtype": "DT_INT32", "tensorShape": {}}}, "dtype": {"type": "DT_INT32"}}}, {"name": "StatefulPartitionedCall/simplified_model_with_melspec/normalized_spectrogram_model/tf.signal.stft_1/stft/frame/concat_2", "op": "ConcatV2", "input": ["StatefulPartitionedCall/simplified_model_with_melspec/normalized_spectrogram_model/tf.signal.stft_1/stft/frame/split", "StatefulPartitionedCall/simplified_model_with_melspec/normalized_spectrogram_model/tf.signal.stft_1/stft/frame/concat_2/values_1", "StatefulPartitionedCall/simplified_model_with_melspec/normalized_spectrogram_model/tf.signal.stft_1/stft/frame/split:2", "StatefulPartitionedCall/simplified_model_with_melspec/normalized_spectrogram_model/tf.signal.stft_1/stft/frame/concat_2/axis"], "attr": {"N": {"i": "3"}, "Tidx": {"type": "DT_INT32"}, "T": {"type": "DT_INT32"}}}, {"name": "StatefulPartitionedCall/simplified_model_with_melspec/normalized_spectrogram_model/tf.signal.stft_1/stft/frame/concat_1/values_1", "op": "ExpandDims", "input": ["StatefulPartitionedCall/simplified_model_with_melspec/normalized_spectrogram_model/tf.signal.stft_1/stft/frame/mul_1", "ConstantFolding/StatefulPartitionedCall/simplified_model_with_melspec/normalized_spectrogram_model/tf.signal.stft_1/stft/frame/concat_1/values_1_const_axis"], "attr": {"Tdim": {"type": "DT_INT32"}, "T": {"type": "DT_INT32"}}}, {"name": "StatefulPartitionedCall/simplified_model_with_melspec/normalized_spectrogram_model/tf.signal.stft_1/stft/frame/concat_1", "op": "ConcatV2", "input": ["StatefulPartitionedCall/simplified_model_with_melspec/normalized_spectrogram_model/tf.signal.stft_1/stft/frame/split", "StatefulPartitionedCall/simplified_model_with_melspec/normalized_spectrogram_model/tf.signal.stft_1/stft/frame/concat_1/values_1", "StatefulPartitionedCall/simplified_model_with_melspec/normalized_spectrogram_model/tf.signal.stft_1/stft/frame/split:2", "StatefulPartitionedCall/simplified_model_with_melspec/normalized_spectrogram_model/tf.signal.stft_1/stft/frame/concat_1/axis"], "attr": {"N": {"i": "3"}, "T": {"type": "DT_INT32"}, "Tidx": {"type": "DT_INT32"}}}, {"name": "StatefulPartitionedCall/simplified_model_with_melspec/normalized_spectrogram_model/tf.signal.stft_1/stft/frame/StridedSlice", "op": "StridedSlice", "input": ["StatefulPartitionedCall/simplified_model_with_melspec/normalized_spectrogram_model/tf.signal.stft_1/stft/frame/PadV2", "StatefulPartitionedCall/simplified_model_with_melspec/normalized_spectrogram_model/tf.signal.stft_1/stft/frame/zeros_like", "StatefulPartitionedCall/simplified_model_with_melspec/normalized_spectrogram_model/tf.signal.stft_1/stft/frame/concat_1", "StatefulPartitionedCall/simplified_model_with_melspec/normalized_spectrogram_model/tf.signal.stft_1/stft/frame/ones_like"], "attr": {"shrink_axis_mask": {"i": "0"}, "new_axis_mask": {"i": "0"}, "Index": {"type": "DT_INT32"}, "begin_mask": {"i": "0"}, "end_mask": {"i": "0"}, "T": {"type": "DT_FLOAT"}, "ellipsis_mask": {"i": "0"}}}, {"name": "StatefulPartitionedCall/simplified_model_with_melspec/normalized_spectrogram_model/tf.signal.stft_1/stft/frame/Reshape_1", "op": "Reshape", "input": ["StatefulPartitionedCall/simplified_model_with_melspec/normalized_spectrogram_model/tf.signal.stft_1/stft/frame/StridedSlice", "StatefulPartitionedCall/simplified_model_with_melspec/normalized_spectrogram_model/tf.signal.stft_1/stft/frame/concat_2"], "attr": {"T": {"type": "DT_FLOAT"}, "Tshape": {"type": "DT_INT32"}}}, {"name": "StatefulPartitionedCall/simplified_model_with_melspec/normalized_spectrogram_model/tf.signal.stft_1/stft/frame/GatherV2", "op": "GatherV2", "input": ["StatefulPartitionedCall/simplified_model_with_melspec/normalized_spectrogram_model/tf.signal.stft_1/stft/frame/Reshape_1", "StatefulPartitionedCall/simplified_model_with_melspec/normalized_spectrogram_model/tf.signal.stft_1/stft/frame/add_2", "StatefulPartitionedCall/simplified_model_with_melspec/normalized_spectrogram_model/tf.signal.stft_1/stft/frame/strided_slice"], "attr": {"Tparams": {"type": "DT_FLOAT"}, "Taxis": {"type": "DT_INT32"}, "Tindices": {"type": "DT_INT32"}, "batch_dims": {"i": "0"}}}, {"name": "StatefulPartitionedCall/simplified_model_with_melspec/normalized_spectrogram_model/tf.signal.stft_1/stft/frame/Reshape_4", "op": "Reshape", "input": ["StatefulPartitionedCall/simplified_model_with_melspec/normalized_spectrogram_model/tf.signal.stft_1/stft/frame/GatherV2", "StatefulPartitionedCall/simplified_model_with_melspec/normalized_spectrogram_model/tf.signal.stft_1/stft/frame/concat_3"], "attr": {"T": {"type": "DT_FLOAT"}, "Tshape": {"type": "DT_INT32"}}}, {"name": "StatefulPartitionedCall/simplified_model_with_melspec/normalized_spectrogram_model/tf.signal.stft_1/stft/mul", "op": "Mul", "input": ["StatefulPartitionedCall/simplified_model_with_melspec/normalized_spectrogram_model/tf.signal.stft_1/stft/frame/Reshape_4", "StatefulPartitionedCall/simplified_model_with_melspec/normalized_spectrogram_model/tf.signal.stft_1/stft/hann_window/sub_2"], "attr": {"T": {"type": "DT_FLOAT"}}}, {"name": "StatefulPartitionedCall/simplified_model_with_melspec/normalized_spectrogram_model/tf.signal.stft_1/stft/rfft", "op": "RFFT", "input": ["StatefulPartitionedCall/simplified_model_with_melspec/normalized_spectrogram_model/tf.signal.stft_1/stft/mul", "StatefulPartitionedCall/simplified_model_with_melspec/normalized_spectrogram_model/tf.signal.stft_1/stft/rfft/fft_length"], "attr": {"Treal": {"type": "DT_FLOAT"}, "Tcomplex": {"type": "DT_COMPLEX64"}}}, {"name": "StatefulPartitionedCall/simplified_model_with_melspec/normalized_spectrogram_model/tf.math.abs_1/Abs", "op": "ComplexAbs", "input": ["StatefulPartitionedCall/simplified_model_with_melspec/normalized_spectrogram_model/tf.signal.stft_1/stft/rfft"], "attr": {"Tout": {"type": "DT_FLOAT"}, "T": {"type": "DT_COMPLEX64"}}}, {"name": "StatefulPartitionedCall/simplified_model_with_melspec/normalized_spectrogram_model/tf.tensordot_1/Tensordot/Shape", "op": "Shape", "input": ["StatefulPartitionedCall/simplified_model_with_melspec/normalized_spectrogram_model/tf.math.abs_1/Abs"], "attr": {"T": {"type": "DT_FLOAT"}, "out_type": {"type": "DT_INT32"}}, "experimentalType": {"typeId": "TFT_PRODUCT", "args": [{"typeId": "TFT_SHAPE_TENSOR", "args": [{"typeId": "TFT_INT32"}]}]}}, {"name": "StatefulPartitionedCall/simplified_model_with_melspec/normalized_spectrogram_model/tf.tensordot_1/Tensordot/GatherV2_1", "op": "GatherV2", "input": ["StatefulPartitionedCall/simplified_model_with_melspec/normalized_spectrogram_model/tf.tensordot_1/Tensordot/Shape", "StatefulPartitionedCall/simplified_model_with_melspec/normalized_spectrogram_model/tf.tensordot_1/Tensordot/axes", "StatefulPartitionedCall/simplified_model_with_melspec/normalized_spectrogram_model/tf.tensordot_1/Tensordot/GatherV2_1/axis"], "attr": {"Tparams": {"type": "DT_INT32"}, "Taxis": {"type": "DT_INT32"}, "Tindices": {"type": "DT_INT32"}, "batch_dims": {"i": "0"}}}, {"name": "StatefulPartitionedCall/simplified_model_with_melspec/normalized_spectrogram_model/tf.tensordot_1/Tensordot/GatherV2", "op": "GatherV2", "input": ["StatefulPartitionedCall/simplified_model_with_melspec/normalized_spectrogram_model/tf.tensordot_1/Tensordot/Shape", "StatefulPartitionedCall/simplified_model_with_melspec/normalized_spectrogram_model/tf.tensordot_1/Tensordot/free", "StatefulPartitionedCall/simplified_model_with_melspec/normalized_spectrogram_model/tf.tensordot_1/Tensordot/GatherV2/axis"], "attr": {"Taxis": {"type": "DT_INT32"}, "Tparams": {"type": "DT_INT32"}, "Tindices": {"type": "DT_INT32"}, "batch_dims": {"i": "0"}}}, {"name": "StatefulPartitionedCall/simplified_model_with_melspec/normalized_spectrogram_model/tf.tensordot_1/Tensordot/Prod_1", "op": "Prod", "input": ["StatefulPartitionedCall/simplified_model_with_melspec/normalized_spectrogram_model/tf.tensordot_1/Tensordot/GatherV2_1", "StatefulPartitionedCall/simplified_model_with_melspec/normalized_spectrogram_model/tf.tensordot_1/Tensordot/Const_1"], "attr": {"Tidx": {"type": "DT_INT32"}, "T": {"type": "DT_INT32"}, "keep_dims": {"b": false}}}, {"name": "StatefulPartitionedCall/simplified_model_with_melspec/normalized_spectrogram_model/tf.tensordot_1/Tensordot/Prod", "op": "Prod", "input": ["StatefulPartitionedCall/simplified_model_with_melspec/normalized_spectrogram_model/tf.tensordot_1/Tensordot/GatherV2", "StatefulPartitionedCall/simplified_model_with_melspec/normalized_spectrogram_model/tf.tensordot_1/Tensordot/Const"], "attr": {"T": {"type": "DT_INT32"}, "Tidx": {"type": "DT_INT32"}, "keep_dims": {"b": false}}}, {"name": "StatefulPartitionedCall/simplified_model_with_melspec/normalized_spectrogram_model/tf.tensordot_1/Tensordot/concat_1", "op": "ConcatV2", "input": ["StatefulPartitionedCall/simplified_model_with_melspec/normalized_spectrogram_model/tf.tensordot_1/Tensordot/GatherV2", "StatefulPartitionedCall/simplified_model_with_melspec/normalized_spectrogram_model/tf.tensordot_1/Tensordot/Const_2", "StatefulPartitionedCall/simplified_model_with_melspec/normalized_spectrogram_model/tf.tensordot_1/Tensordot/concat_1/axis"], "attr": {"N": {"i": "2"}, "Tidx": {"type": "DT_INT32"}, "T": {"type": "DT_INT32"}}}, {"name": "StatefulPartitionedCall/simplified_model_with_melspec/normalized_spectrogram_model/tf.tensordot_1/Tensordot/stack", "op": "Pack", "input": ["StatefulPartitionedCall/simplified_model_with_melspec/normalized_spectrogram_model/tf.tensordot_1/Tensordot/Prod", "StatefulPartitionedCall/simplified_model_with_melspec/normalized_spectrogram_model/tf.tensordot_1/Tensordot/Prod_1"], "attr": {"N": {"i": "2"}, "axis": {"i": "0"}, "T": {"type": "DT_INT32"}}}, {"name": "StatefulPartitionedCall/simplified_model_with_melspec/normalized_spectrogram_model/tf.tensordot_1/Tensordot/Reshape", "op": "Reshape", "input": ["StatefulPartitionedCall/simplified_model_with_melspec/normalized_spectrogram_model/tf.math.abs_1/Abs", "StatefulPartitionedCall/simplified_model_with_melspec/normalized_spectrogram_model/tf.tensordot_1/Tensordot/stack"], "attr": {"T": {"type": "DT_FLOAT"}, "Tshape": {"type": "DT_INT32"}}}, {"name": "StatefulPartitionedCall/simplified_model_with_melspec/normalized_spectrogram_model/tf.tensordot_1/Tensordot/MatMul", "op": "MatMul", "input": ["StatefulPartitionedCall/simplified_model_with_melspec/normalized_spectrogram_model/tf.tensordot_1/Tensordot/Reshape", "unknown"], "device": "/device:CPU:0", "attr": {"transpose_a": {"b": false}, "T": {"type": "DT_FLOAT"}, "transpose_b": {"b": false}}}, {"name": "StatefulPartitionedCall/simplified_model_with_melspec/normalized_spectrogram_model/tf.tensordot_1/Tensordot", "op": "Reshape", "input": ["StatefulPartitionedCall/simplified_model_with_melspec/normalized_spectrogram_model/tf.tensordot_1/Tensordot/MatMul", "StatefulPartitionedCall/simplified_model_with_melspec/normalized_spectrogram_model/tf.tensordot_1/Tensordot/concat_1"], "attr": {"T": {"type": "DT_FLOAT"}, "Tshape": {"type": "DT_INT32"}}}, {"name": "StatefulPartitionedCall/simplified_model_with_melspec/normalized_spectrogram_model/tf.__operators__.add_1/AddV2", "op": "AddV2", "input": ["StatefulPartitionedCall/simplified_model_with_melspec/normalized_spectrogram_model/tf.tensordot_1/Tensordot", "StatefulPartitionedCall/simplified_model_with_melspec/normalized_spectrogram_model/tf.__operators__.add_1/y"], "attr": {"T": {"type": "DT_FLOAT"}}}, {"name": "StatefulPartitionedCall/simplified_model_with_melspec/normalized_spectrogram_model/tf.math.log_1/Log", "op": "Log", "input": ["StatefulPartitionedCall/simplified_model_with_melspec/normalized_spectrogram_model/tf.__operators__.add_1/AddV2"], "attr": {"T": {"type": "DT_FLOAT"}}}, {"name": "StatefulPartitionedCall/simplified_model_with_melspec/normalized_spectrogram_model/tf.math.reduce_mean_1/Mean", "op": "Mean", "input": ["StatefulPartitionedCall/simplified_model_with_melspec/normalized_spectrogram_model/tf.math.log_1/Log", "StatefulPartitionedCall/simplified_model_with_melspec/normalized_spectrogram_model/tf.math.reduce_mean_1/Const"], "attr": {"Tidx": {"type": "DT_INT32"}, "T": {"type": "DT_FLOAT"}, "keep_dims": {"b": false}}}, {"name": "StatefulPartitionedCall/simplified_model_with_melspec/normalized_spectrogram_model/tf.math.reduce_std_1/reduce_std/reduce_variance/Mean", "op": "Mean", "input": ["StatefulPartitionedCall/simplified_model_with_melspec/normalized_spectrogram_model/tf.math.log_1/Log", "StatefulPartitionedCall/simplified_model_with_melspec/normalized_spectrogram_model/tf.math.reduce_std_1/reduce_std/reduce_variance/Const"], "attr": {"T": {"type": "DT_FLOAT"}, "Tidx": {"type": "DT_INT32"}, "keep_dims": {"b": true}}}, {"name": "StatefulPartitionedCall/simplified_model_with_melspec/normalized_spectrogram_model/tf.math.subtract_1/Sub", "op": "Sub", "input": ["StatefulPartitionedCall/simplified_model_with_melspec/normalized_spectrogram_model/tf.math.log_1/Log", "StatefulPartitionedCall/simplified_model_with_melspec/normalized_spectrogram_model/tf.math.reduce_mean_1/Mean"], "attr": {"T": {"type": "DT_FLOAT"}}}, {"name": "StatefulPartitionedCall/simplified_model_with_melspec/normalized_spectrogram_model/tf.math.reduce_std_1/reduce_std/reduce_variance/sub", "op": "SquaredDifference", "input": ["StatefulPartitionedCall/simplified_model_with_melspec/normalized_spectrogram_model/tf.math.log_1/Log", "StatefulPartitionedCall/simplified_model_with_melspec/normalized_spectrogram_model/tf.math.reduce_std_1/reduce_std/reduce_variance/Mean"], "attr": {"T": {"type": "DT_FLOAT"}}}, {"name": "StatefulPartitionedCall/simplified_model_with_melspec/normalized_spectrogram_model/tf.math.reduce_std_1/reduce_std/reduce_variance/Mean_1", "op": "Mean", "input": ["StatefulPartitionedCall/simplified_model_with_melspec/normalized_spectrogram_model/tf.math.reduce_std_1/reduce_std/reduce_variance/sub", "StatefulPartitionedCall/simplified_model_with_melspec/normalized_spectrogram_model/tf.math.reduce_std_1/reduce_std/reduce_variance/Const_1"], "attr": {"Tidx": {"type": "DT_INT32"}, "T": {"type": "DT_FLOAT"}, "keep_dims": {"b": false}}}, {"name": "StatefulPartitionedCall/simplified_model_with_melspec/normalized_spectrogram_model/tf.math.reduce_std_1/reduce_std/Sqrt", "op": "Rsqrt", "input": ["StatefulPartitionedCall/simplified_model_with_melspec/normalized_spectrogram_model/tf.math.reduce_std_1/reduce_std/reduce_variance/Mean_1"], "attr": {"T": {"type": "DT_FLOAT"}}}, {"name": "StatefulPartitionedCall/simplified_model_with_melspec/normalized_spectrogram_model/tf.math.truediv_1/truediv", "op": "Mul", "input": ["StatefulPartitionedCall/simplified_model_with_melspec/normalized_spectrogram_model/tf.math.subtract_1/Sub", "StatefulPartitionedCall/simplified_model_with_melspec/normalized_spectrogram_model/tf.math.reduce_std_1/reduce_std/Sqrt"], "attr": {"T": {"type": "DT_FLOAT"}}}, {"name": "StatefulPartitionedCall/simplified_model_with_melspec/tf.expand_dims/ExpandDims", "op": "ExpandDims", "input": ["StatefulPartitionedCall/simplified_model_with_melspec/normalized_spectrogram_model/tf.math.truediv_1/truediv", "StatefulPartitionedCall/simplified_model_with_melspec/tf.expand_dims/ExpandDims/dim"], "attr": {"Tdim": {"type": "DT_INT32"}, "T": {"type": "DT_FLOAT"}}}, {"name": "StatefulPartitionedCall/simplified_model_with_melspec/conv2d/leaky_re_lu/LeakyRelu", "op": "_FusedConv2D", "input": ["StatefulPartitionedCall/simplified_model_with_melspec/tf.expand_dims/ExpandDims", "StatefulPartitionedCall/simplified_model_with_melspec/conv2d/Conv2D/ReadVariableOp", "StatefulPartitionedCall/simplified_model_with_melspec/conv2d/BiasAdd/ReadVariableOp"], "device": "/device:CPU:0", "attr": {"num_host_args": {"i": "0"}, "data_format": {"s": "TkhXQw=="}, "filter_format": {"s": "SFdJTw=="}, "fused_ops": {"list": {"s": ["Qmlhc0FkZA==", "TGVha3lSZWx1"]}}, "num_args": {"i": "1"}, "strides": {"list": {"i": ["1", "1", "1", "1"]}}, "TArgs": {"list": {"type": ["DT_FLOAT"]}}, "padding": {"s": "U0FNRQ=="}, "use_cudnn_on_gpu": {"b": true}, "leakyrelu_alpha": {"f": 0.1}, "epsilon": {"f": 0.0}, "T": {"type": "DT_FLOAT"}, "explicit_paddings": {"list": {}}, "dilations": {"list": {"i": ["1", "1", "1", "1"]}}}}, {"name": "StatefulPartitionedCall/simplified_model_with_melspec/batch_normalization/FusedBatchNormV3/Mul", "op": "Mul", "input": ["StatefulPartitionedCall/simplified_model_with_melspec/conv2d/leaky_re_lu/LeakyRelu", "StatefulPartitionedCall/simplified_model_with_melspec/batch_normalization/FusedBatchNormV3/Scaled"], "attr": {"T": {"type": "DT_FLOAT"}}}, {"name": "StatefulPartitionedCall/simplified_model_with_melspec/batch_normalization/FusedBatchNormV3", "op": "Add", "input": ["StatefulPartitionedCall/simplified_model_with_melspec/batch_normalization/FusedBatchNormV3/Mul", "StatefulPartitionedCall/simplified_model_with_melspec/batch_normalization/FusedBatchNormV3/Offset"], "attr": {"T": {"type": "DT_FLOAT"}}}, {"name": "StatefulPartitionedCall/simplified_model_with_melspec/conv2d_1/leaky_re_lu_1/LeakyRelu", "op": "_FusedConv2D", "input": ["StatefulPartitionedCall/simplified_model_with_melspec/batch_normalization/FusedBatchNormV3", "StatefulPartitionedCall/simplified_model_with_melspec/conv2d_1/Conv2D/ReadVariableOp", "StatefulPartitionedCall/simplified_model_with_melspec/conv2d_1/BiasAdd/ReadVariableOp"], "device": "/device:CPU:0", "attr": {"num_host_args": {"i": "0"}, "data_format": {"s": "TkhXQw=="}, "filter_format": {"s": "SFdJTw=="}, "strides": {"list": {"i": ["1", "1", "1", "1"]}}, "num_args": {"i": "1"}, "fused_ops": {"list": {"s": ["Qmlhc0FkZA==", "TGVha3lSZWx1"]}}, "TArgs": {"list": {"type": ["DT_FLOAT"]}}, "padding": {"s": "U0FNRQ=="}, "use_cudnn_on_gpu": {"b": true}, "leakyrelu_alpha": {"f": 0.1}, "epsilon": {"f": 0.0}, "T": {"type": "DT_FLOAT"}, "explicit_paddings": {"list": {}}, "dilations": {"list": {"i": ["1", "1", "1", "1"]}}}}, {"name": "StatefulPartitionedCall/simplified_model_with_melspec/batch_normalization_1/FusedBatchNormV3/Mul", "op": "Mul", "input": ["StatefulPartitionedCall/simplified_model_with_melspec/conv2d_1/leaky_re_lu_1/LeakyRelu", "StatefulPartitionedCall/simplified_model_with_melspec/batch_normalization_1/FusedBatchNormV3/Scaled"], "attr": {"T": {"type": "DT_FLOAT"}}}, {"name": "StatefulPartitionedCall/simplified_model_with_melspec/batch_normalization_1/FusedBatchNormV3", "op": "Add", "input": ["StatefulPartitionedCall/simplified_model_with_melspec/batch_normalization_1/FusedBatchNormV3/Mul", "StatefulPartitionedCall/simplified_model_with_melspec/batch_normalization_1/FusedBatchNormV3/Offset"], "attr": {"T": {"type": "DT_FLOAT"}}}, {"name": "StatefulPartitionedCall/simplified_model_with_melspec/squeeze_last_dim/Squeeze", "op": "Squeeze", "input": ["StatefulPartitionedCall/simplified_model_with_melspec/batch_normalization_1/FusedBatchNormV3"], "attr": {"T": {"type": "DT_FLOAT"}, "squeeze_dims": {"list": {"i": ["-1"]}}}}, {"name": "StatefulPartitionedCall/simplified_model_with_melspec/bidirectional/forward_lstm/Shape", "op": "Shape", "input": ["StatefulPartitionedCall/simplified_model_with_melspec/squeeze_last_dim/Squeeze"], "attr": {"T": {"type": "DT_FLOAT"}, "out_type": {"type": "DT_INT32"}}, "experimentalType": {"typeId": "TFT_PRODUCT", "args": [{"typeId": "TFT_SHAPE_TENSOR", "args": [{"typeId": "TFT_INT32"}]}]}}, {"name": "StatefulPartitionedCall/simplified_model_with_melspec/bidirectional/forward_lstm/PartitionedCall/transpose", "op": "Transpose", "input": ["StatefulPartitionedCall/simplified_model_with_melspec/squeeze_last_dim/Squeeze", "StatefulPartitionedCall/simplified_model_with_melspec/bidirectional/forward_lstm/PartitionedCall/transpose/perm"], "attr": {"Tperm": {"type": "DT_INT32"}, "T": {"type": "DT_FLOAT"}}}, {"name": "StatefulPartitionedCall/simplified_model_with_melspec/bidirectional/backward_lstm/Shape", "op": "Shape", "input": ["StatefulPartitionedCall/simplified_model_with_melspec/squeeze_last_dim/Squeeze"], "attr": {"T": {"type": "DT_FLOAT"}, "out_type": {"type": "DT_INT32"}}, "experimentalType": {"typeId": "TFT_PRODUCT", "args": [{"typeId": "TFT_SHAPE_TENSOR", "args": [{"typeId": "TFT_INT32"}]}]}}, {"name": "StatefulPartitionedCall/simplified_model_with_melspec/bidirectional/backward_lstm/PartitionedCall/transpose", "op": "Transpose", "input": ["StatefulPartitionedCall/simplified_model_with_melspec/squeeze_last_dim/Squeeze", "StatefulPartitionedCall/simplified_model_with_melspec/bidirectional/backward_lstm/PartitionedCall/transpose/perm"], "attr": {"Tperm": {"type": "DT_INT32"}, "T": {"type": "DT_FLOAT"}}}, {"name": "StatefulPartitionedCall/simplified_model_with_melspec/bidirectional/forward_lstm/strided_slice", "op": "StridedSlice", "input": ["StatefulPartitionedCall/simplified_model_with_melspec/bidirectional/forward_lstm/Shape", "StatefulPartitionedCall/simplified_model_with_melspec/bidirectional/forward_lstm/strided_slice/stack", "StatefulPartitionedCall/simplified_model_with_melspec/bidirectional/forward_lstm/strided_slice/stack_1", "StatefulPartitionedCall/simplified_model_with_melspec/bidirectional/forward_lstm/strided_slice/stack_2"], "attr": {"shrink_axis_mask": {"i": "1"}, "new_axis_mask": {"i": "0"}, "Index": {"type": "DT_INT32"}, "begin_mask": {"i": "0"}, "T": {"type": "DT_INT32"}, "end_mask": {"i": "0"}, "ellipsis_mask": {"i": "0"}}}, {"name": "StatefulPartitionedCall/simplified_model_with_melspec/bidirectional/forward_lstm/PartitionedCall/TensorArrayUnstack/TensorListFromTensor", "op": "TensorListFromTensor", "input": ["StatefulPartitionedCall/simplified_model_with_melspec/bidirectional/forward_lstm/PartitionedCall/transpose", "StatefulPartitionedCall/simplified_model_with_melspec/bidirectional/forward_lstm/PartitionedCall/TensorArrayUnstack/TensorListFromTensor/element_shape"], "attr": {"shape_type": {"type": "DT_INT32"}, "element_dtype": {"type": "DT_FLOAT"}}, "experimentalType": {"typeId": "TFT_PRODUCT", "args": [{"typeId": "TFT_ARRAY", "args": [{"typeId": "TFT_TENSOR", "args": [{"typeId": "TFT_FLOAT"}]}]}]}}, {"name": "StatefulPartitionedCall/simplified_model_with_melspec/bidirectional/forward_lstm/PartitionedCall/Shape", "op": "Shape", "input": ["StatefulPartitionedCall/simplified_model_with_melspec/bidirectional/forward_lstm/PartitionedCall/transpose"], "attr": {"T": {"type": "DT_FLOAT"}, "out_type": {"type": "DT_INT32"}}, "experimentalType": {"typeId": "TFT_PRODUCT", "args": [{"typeId": "TFT_SHAPE_TENSOR", "args": [{"typeId": "TFT_INT32"}]}]}}, {"name": "StatefulPartitionedCall/simplified_model_with_melspec/bidirectional/backward_lstm/strided_slice", "op": "StridedSlice", "input": ["StatefulPartitionedCall/simplified_model_with_melspec/bidirectional/backward_lstm/Shape", "StatefulPartitionedCall/simplified_model_with_melspec/bidirectional/backward_lstm/strided_slice/stack", "StatefulPartitionedCall/simplified_model_with_melspec/bidirectional/backward_lstm/strided_slice/stack_1", "StatefulPartitionedCall/simplified_model_with_melspec/bidirectional/backward_lstm/strided_slice/stack_2"], "attr": {"shrink_axis_mask": {"i": "1"}, "Index": {"type": "DT_INT32"}, "new_axis_mask": {"i": "0"}, "begin_mask": {"i": "0"}, "T": {"type": "DT_INT32"}, "end_mask": {"i": "0"}, "ellipsis_mask": {"i": "0"}}}, {"name": "StatefulPartitionedCall/simplified_model_with_melspec/bidirectional/backward_lstm/PartitionedCall/ReverseV2", "op": "ReverseV2", "input": ["StatefulPartitionedCall/simplified_model_with_melspec/bidirectional/backward_lstm/PartitionedCall/transpose", "StatefulPartitionedCall/simplified_model_with_melspec/bidirectional/backward_lstm/PartitionedCall/ReverseV2/axis"], "attr": {"T": {"type": "DT_FLOAT"}, "Tidx": {"type": "DT_INT32"}}}, {"name": "StatefulPartitionedCall/simplified_model_with_melspec/bidirectional/backward_lstm/PartitionedCall/Shape", "op": "Shape", "input": ["StatefulPartitionedCall/simplified_model_with_melspec/bidirectional/backward_lstm/PartitionedCall/transpose"], "attr": {"T": {"type": "DT_FLOAT"}, "out_type": {"type": "DT_INT32"}}, "experimentalType": {"typeId": "TFT_PRODUCT", "args": [{"typeId": "TFT_SHAPE_TENSOR", "args": [{"typeId": "TFT_INT32"}]}]}}, {"name": "StatefulPartitionedCall/simplified_model_with_melspec/bidirectional/forward_lstm/zeros_1/packed", "op": "Pack", "input": ["StatefulPartitionedCall/simplified_model_with_melspec/bidirectional/forward_lstm/strided_slice", "StatefulPartitionedCall/simplified_model_with_melspec/bidirectional/forward_lstm/zeros_1/packed/1"], "attr": {"N": {"i": "2"}, "axis": {"i": "0"}, "T": {"type": "DT_INT32"}}}, {"name": "StatefulPartitionedCall/simplified_model_with_melspec/bidirectional/forward_lstm/zeros/packed", "op": "Pack", "input": ["StatefulPartitionedCall/simplified_model_with_melspec/bidirectional/forward_lstm/strided_slice", "StatefulPartitionedCall/simplified_model_with_melspec/bidirectional/forward_lstm/zeros/packed/1"], "attr": {"N": {"i": "2"}, "axis": {"i": "0"}, "T": {"type": "DT_INT32"}}}, {"name": "StatefulPartitionedCall/simplified_model_with_melspec/bidirectional/forward_lstm/PartitionedCall/while/enter/_89", "op": "Enter", "input": ["StatefulPartitionedCall/simplified_model_with_melspec/bidirectional/forward_lstm/PartitionedCall/TensorArrayUnstack/TensorListFromTensor"], "attr": {"is_constant": {"b": false}, "frame_name": {"s": "U3RhdGVmdWxQYXJ0aXRpb25lZENhbGwvc2ltcGxpZmllZF9tb2RlbF93aXRoX21lbHNwZWMvYmlkaXJlY3Rpb25hbC9mb3J3YXJkX2xzdG0vUGFydGl0aW9uZWRDYWxsL3doaWxl"}, "T": {"type": "DT_VARIANT"}, "parallel_iterations": {"i": "32"}}}, {"name": "StatefulPartitionedCall/simplified_model_with_melspec/bidirectional/forward_lstm/PartitionedCall/strided_slice", "op": "StridedSlice", "input": ["StatefulPartitionedCall/simplified_model_with_melspec/bidirectional/forward_lstm/PartitionedCall/Shape", "StatefulPartitionedCall/simplified_model_with_melspec/bidirectional/forward_lstm/PartitionedCall/strided_slice/stack", "StatefulPartitionedCall/simplified_model_with_melspec/bidirectional/forward_lstm/PartitionedCall/strided_slice/stack_1", "StatefulPartitionedCall/simplified_model_with_melspec/bidirectional/forward_lstm/PartitionedCall/strided_slice/stack_2"], "attr": {"shrink_axis_mask": {"i": "1"}, "new_axis_mask": {"i": "0"}, "Index": {"type": "DT_INT32"}, "begin_mask": {"i": "0"}, "end_mask": {"i": "0"}, "T": {"type": "DT_INT32"}, "ellipsis_mask": {"i": "0"}}}, {"name": "StatefulPartitionedCall/simplified_model_with_melspec/bidirectional/backward_lstm/zeros_1/packed", "op": "Pack", "input": ["StatefulPartitionedCall/simplified_model_with_melspec/bidirectional/backward_lstm/strided_slice", "StatefulPartitionedCall/simplified_model_with_melspec/bidirectional/backward_lstm/zeros_1/packed/1"], "attr": {"N": {"i": "2"}, "axis": {"i": "0"}, "T": {"type": "DT_INT32"}}}, {"name": "StatefulPartitionedCall/simplified_model_with_melspec/bidirectional/backward_lstm/zeros/packed", "op": "Pack", "input": ["StatefulPartitionedCall/simplified_model_with_melspec/bidirectional/backward_lstm/strided_slice", "StatefulPartitionedCall/simplified_model_with_melspec/bidirectional/backward_lstm/zeros/packed/1"], "attr": {"N": {"i": "2"}, "axis": {"i": "0"}, "T": {"type": "DT_INT32"}}}, {"name": "StatefulPartitionedCall/simplified_model_with_melspec/bidirectional/backward_lstm/PartitionedCall/TensorArrayUnstack/TensorListFromTensor", "op": "TensorListFromTensor", "input": ["StatefulPartitionedCall/simplified_model_with_melspec/bidirectional/backward_lstm/PartitionedCall/ReverseV2", "StatefulPartitionedCall/simplified_model_with_melspec/bidirectional/backward_lstm/PartitionedCall/TensorArrayUnstack/TensorListFromTensor/element_shape"], "attr": {"shape_type": {"type": "DT_INT32"}, "element_dtype": {"type": "DT_FLOAT"}}, "experimentalType": {"typeId": "TFT_PRODUCT", "args": [{"typeId": "TFT_ARRAY", "args": [{"typeId": "TFT_TENSOR", "args": [{"typeId": "TFT_FLOAT"}]}]}]}}, {"name": "StatefulPartitionedCall/simplified_model_with_melspec/bidirectional/backward_lstm/PartitionedCall/strided_slice", "op": "StridedSlice", "input": ["StatefulPartitionedCall/simplified_model_with_melspec/bidirectional/backward_lstm/PartitionedCall/Shape", "StatefulPartitionedCall/simplified_model_with_melspec/bidirectional/backward_lstm/PartitionedCall/strided_slice/stack", "StatefulPartitionedCall/simplified_model_with_melspec/bidirectional/backward_lstm/PartitionedCall/strided_slice/stack_1", "StatefulPartitionedCall/simplified_model_with_melspec/bidirectional/backward_lstm/PartitionedCall/strided_slice/stack_2"], "attr": {"shrink_axis_mask": {"i": "1"}, "Index": {"type": "DT_INT32"}, "new_axis_mask": {"i": "0"}, "begin_mask": {"i": "0"}, "end_mask": {"i": "0"}, "T": {"type": "DT_INT32"}, "ellipsis_mask": {"i": "0"}}}, {"name": "StatefulPartitionedCall/simplified_model_with_melspec/bidirectional/forward_lstm/zeros_1", "op": "Fill", "input": ["StatefulPartitionedCall/simplified_model_with_melspec/bidirectional/forward_lstm/zeros_1/packed", "StatefulPartitionedCall/simplified_model_with_melspec/bidirectional/forward_lstm/zeros_1/Const"], "attr": {"T": {"type": "DT_FLOAT"}, "index_type": {"type": "DT_INT32"}}}, {"name": "StatefulPartitionedCall/simplified_model_with_melspec/bidirectional/forward_lstm/zeros", "op": "Fill", "input": ["StatefulPartitionedCall/simplified_model_with_melspec/bidirectional/forward_lstm/zeros/packed", "StatefulPartitionedCall/simplified_model_with_melspec/bidirectional/forward_lstm/zeros/Const"], "attr": {"T": {"type": "DT_FLOAT"}, "index_type": {"type": "DT_INT32"}}}, {"name": "StatefulPartitionedCall/simplified_model_with_melspec/bidirectional/forward_lstm/PartitionedCall/while/merge/_100", "op": "Merge", "input": ["StatefulPartitionedCall/simplified_model_with_melspec/bidirectional/forward_lstm/PartitionedCall/while/enter/_89", "StatefulPartitionedCall/simplified_model_with_melspec/bidirectional/forward_lstm/PartitionedCall/while/next_iteration/_136"], "attr": {"N": {"i": "2"}, "T": {"type": "DT_VARIANT"}}}, {"name": "StatefulPartitionedCall/simplified_model_with_melspec/bidirectional/forward_lstm/PartitionedCall/TensorArrayV2_1", "op": "TensorListReserve", "input": ["StatefulPartitionedCall/simplified_model_with_melspec/bidirectional/forward_lstm/PartitionedCall/TensorArrayV2_1/element_shape", "StatefulPartitionedCall/simplified_model_with_melspec/bidirectional/forward_lstm/PartitionedCall/strided_slice"], "attr": {"shape_type": {"type": "DT_INT32"}, "element_dtype": {"type": "DT_FLOAT"}}, "experimentalType": {"typeId": "TFT_PRODUCT", "args": [{"typeId": "TFT_ARRAY", "args": [{"typeId": "TFT_TENSOR", "args": [{"typeId": "TFT_FLOAT"}]}]}]}}, {"name": "StatefulPartitionedCall/simplified_model_with_melspec/bidirectional/forward_lstm/PartitionedCall/while/enter/_88", "op": "Enter", "input": ["StatefulPartitionedCall/simplified_model_with_melspec/bidirectional/forward_lstm/PartitionedCall/strided_slice"], "attr": {"is_constant": {"b": false}, "frame_name": {"s": "U3RhdGVmdWxQYXJ0aXRpb25lZENhbGwvc2ltcGxpZmllZF9tb2RlbF93aXRoX21lbHNwZWMvYmlkaXJlY3Rpb25hbC9mb3J3YXJkX2xzdG0vUGFydGl0aW9uZWRDYWxsL3doaWxl"}, "T": {"type": "DT_INT32"}, "parallel_iterations": {"i": "32"}}}, {"name": "StatefulPartitionedCall/simplified_model_with_melspec/bidirectional/backward_lstm/zeros_1", "op": "Fill", "input": ["StatefulPartitionedCall/simplified_model_with_melspec/bidirectional/backward_lstm/zeros_1/packed", "StatefulPartitionedCall/simplified_model_with_melspec/bidirectional/backward_lstm/zeros_1/Const"], "attr": {"T": {"type": "DT_FLOAT"}, "index_type": {"type": "DT_INT32"}}}, {"name": "StatefulPartitionedCall/simplified_model_with_melspec/bidirectional/backward_lstm/zeros", "op": "Fill", "input": ["StatefulPartitionedCall/simplified_model_with_melspec/bidirectional/backward_lstm/zeros/packed", "StatefulPartitionedCall/simplified_model_with_melspec/bidirectional/backward_lstm/zeros/Const"], "attr": {"T": {"type": "DT_FLOAT"}, "index_type": {"type": "DT_INT32"}}}, {"name": "StatefulPartitionedCall/simplified_model_with_melspec/bidirectional/backward_lstm/PartitionedCall/while/enter/_149", "op": "Enter", "input": ["StatefulPartitionedCall/simplified_model_with_melspec/bidirectional/backward_lstm/PartitionedCall/TensorArrayUnstack/TensorListFromTensor"], "attr": {"is_constant": {"b": false}, "frame_name": {"s": "U3RhdGVmdWxQYXJ0aXRpb25lZENhbGwvc2ltcGxpZmllZF9tb2RlbF93aXRoX21lbHNwZWMvYmlkaXJlY3Rpb25hbC9iYWNrd2FyZF9sc3RtL1BhcnRpdGlvbmVkQ2FsbC93aGlsZQ=="}, "T": {"type": "DT_VARIANT"}, "parallel_iterations": {"i": "32"}}}, {"name": "StatefulPartitionedCall/simplified_model_with_melspec/bidirectional/backward_lstm/PartitionedCall/TensorArrayV2_1", "op": "TensorListReserve", "input": ["StatefulPartitionedCall/simplified_model_with_melspec/bidirectional/backward_lstm/PartitionedCall/TensorArrayV2_1/element_shape", "StatefulPartitionedCall/simplified_model_with_melspec/bidirectional/backward_lstm/PartitionedCall/strided_slice"], "attr": {"shape_type": {"type": "DT_INT32"}, "element_dtype": {"type": "DT_FLOAT"}}, "experimentalType": {"typeId": "TFT_PRODUCT", "args": [{"typeId": "TFT_ARRAY", "args": [{"typeId": "TFT_TENSOR", "args": [{"typeId": "TFT_FLOAT"}]}]}]}}, {"name": "StatefulPartitionedCall/simplified_model_with_melspec/bidirectional/backward_lstm/PartitionedCall/while/enter/_148", "op": "Enter", "input": ["StatefulPartitionedCall/simplified_model_with_melspec/bidirectional/backward_lstm/PartitionedCall/strided_slice"], "attr": {"is_constant": {"b": false}, "frame_name": {"s": "U3RhdGVmdWxQYXJ0aXRpb25lZENhbGwvc2ltcGxpZmllZF9tb2RlbF93aXRoX21lbHNwZWMvYmlkaXJlY3Rpb25hbC9iYWNrd2FyZF9sc3RtL1BhcnRpdGlvbmVkQ2FsbC93aGlsZQ=="}, "T": {"type": "DT_INT32"}, "parallel_iterations": {"i": "32"}}}, {"name": "StatefulPartitionedCall/simplified_model_with_melspec/bidirectional/forward_lstm/PartitionedCall/while/enter/_87", "op": "Enter", "input": ["StatefulPartitionedCall/simplified_model_with_melspec/bidirectional/forward_lstm/zeros_1"], "attr": {"is_constant": {"b": false}, "frame_name": {"s": "U3RhdGVmdWxQYXJ0aXRpb25lZENhbGwvc2ltcGxpZmllZF9tb2RlbF93aXRoX21lbHNwZWMvYmlkaXJlY3Rpb25hbC9mb3J3YXJkX2xzdG0vUGFydGl0aW9uZWRDYWxsL3doaWxl"}, "T": {"type": "DT_FLOAT"}, "parallel_iterations": {"i": "32"}}}, {"name": "StatefulPartitionedCall/simplified_model_with_melspec/bidirectional/forward_lstm/PartitionedCall/while/enter/_86", "op": "Enter", "input": ["StatefulPartitionedCall/simplified_model_with_melspec/bidirectional/forward_lstm/zeros"], "attr": {"is_constant": {"b": false}, "frame_name": {"s": "U3RhdGVmdWxQYXJ0aXRpb25lZENhbGwvc2ltcGxpZmllZF9tb2RlbF93aXRoX21lbHNwZWMvYmlkaXJlY3Rpb25hbC9mb3J3YXJkX2xzdG0vUGFydGl0aW9uZWRDYWxsL3doaWxl"}, "T": {"type": "DT_FLOAT"}, "parallel_iterations": {"i": "32"}}}, {"name": "StatefulPartitionedCall/simplified_model_with_melspec/bidirectional/forward_lstm/PartitionedCall/while/enter/_85", "op": "Enter", "input": ["StatefulPartitionedCall/simplified_model_with_melspec/bidirectional/forward_lstm/PartitionedCall/TensorArrayV2_1"], "attr": {"is_constant": {"b": false}, "frame_name": {"s": "U3RhdGVmdWxQYXJ0aXRpb25lZENhbGwvc2ltcGxpZmllZF9tb2RlbF93aXRoX21lbHNwZWMvYmlkaXJlY3Rpb25hbC9mb3J3YXJkX2xzdG0vUGFydGl0aW9uZWRDYWxsL3doaWxl"}, "T": {"type": "DT_VARIANT"}, "parallel_iterations": {"i": "32"}}}, {"name": "StatefulPartitionedCall/simplified_model_with_melspec/bidirectional/forward_lstm/PartitionedCall/while/merge/_99", "op": "Merge", "input": ["StatefulPartitionedCall/simplified_model_with_melspec/bidirectional/forward_lstm/PartitionedCall/while/enter/_88", "StatefulPartitionedCall/simplified_model_with_melspec/bidirectional/forward_lstm/PartitionedCall/while/next_iteration/_135"], "attr": {"N": {"i": "2"}, "T": {"type": "DT_INT32"}}}, {"name": "StatefulPartitionedCall/simplified_model_with_melspec/bidirectional/backward_lstm/PartitionedCall/while/enter/_147", "op": "Enter", "input": ["StatefulPartitionedCall/simplified_model_with_melspec/bidirectional/backward_lstm/zeros_1"], "attr": {"is_constant": {"b": false}, "frame_name": {"s": "U3RhdGVmdWxQYXJ0aXRpb25lZENhbGwvc2ltcGxpZmllZF9tb2RlbF93aXRoX21lbHNwZWMvYmlkaXJlY3Rpb25hbC9iYWNrd2FyZF9sc3RtL1BhcnRpdGlvbmVkQ2FsbC93aGlsZQ=="}, "T": {"type": "DT_FLOAT"}, "parallel_iterations": {"i": "32"}}}, {"name": "StatefulPartitionedCall/simplified_model_with_melspec/bidirectional/backward_lstm/PartitionedCall/while/enter/_146", "op": "Enter", "input": ["StatefulPartitionedCall/simplified_model_with_melspec/bidirectional/backward_lstm/zeros"], "attr": {"is_constant": {"b": false}, "frame_name": {"s": "U3RhdGVmdWxQYXJ0aXRpb25lZENhbGwvc2ltcGxpZmllZF9tb2RlbF93aXRoX21lbHNwZWMvYmlkaXJlY3Rpb25hbC9iYWNrd2FyZF9sc3RtL1BhcnRpdGlvbmVkQ2FsbC93aGlsZQ=="}, "T": {"type": "DT_FLOAT"}, "parallel_iterations": {"i": "32"}}}, {"name": "StatefulPartitionedCall/simplified_model_with_melspec/bidirectional/backward_lstm/PartitionedCall/while/merge/_160", "op": "Merge", "input": ["StatefulPartitionedCall/simplified_model_with_melspec/bidirectional/backward_lstm/PartitionedCall/while/enter/_149", "StatefulPartitionedCall/simplified_model_with_melspec/bidirectional/backward_lstm/PartitionedCall/while/next_iteration/_196"], "attr": {"N": {"i": "2"}, "T": {"type": "DT_VARIANT"}}}, {"name": "StatefulPartitionedCall/simplified_model_with_melspec/bidirectional/backward_lstm/PartitionedCall/while/enter/_145", "op": "Enter", "input": ["StatefulPartitionedCall/simplified_model_with_melspec/bidirectional/backward_lstm/PartitionedCall/TensorArrayV2_1"], "attr": {"is_constant": {"b": false}, "frame_name": {"s": "U3RhdGVmdWxQYXJ0aXRpb25lZENhbGwvc2ltcGxpZmllZF9tb2RlbF93aXRoX21lbHNwZWMvYmlkaXJlY3Rpb25hbC9iYWNrd2FyZF9sc3RtL1BhcnRpdGlvbmVkQ2FsbC93aGlsZQ=="}, "T": {"type": "DT_VARIANT"}, "parallel_iterations": {"i": "32"}}}, {"name": "StatefulPartitionedCall/simplified_model_with_melspec/bidirectional/backward_lstm/PartitionedCall/while/merge/_159", "op": "Merge", "input": ["StatefulPartitionedCall/simplified_model_with_melspec/bidirectional/backward_lstm/PartitionedCall/while/enter/_148", "StatefulPartitionedCall/simplified_model_with_melspec/bidirectional/backward_lstm/PartitionedCall/while/next_iteration/_195"], "attr": {"N": {"i": "2"}, "T": {"type": "DT_INT32"}}}, {"name": "StatefulPartitionedCall/simplified_model_with_melspec/bidirectional/forward_lstm/PartitionedCall/while/merge/_98", "op": "Merge", "input": ["StatefulPartitionedCall/simplified_model_with_melspec/bidirectional/forward_lstm/PartitionedCall/while/enter/_87", "StatefulPartitionedCall/simplified_model_with_melspec/bidirectional/forward_lstm/PartitionedCall/while/next_iteration/_134"], "attr": {"N": {"i": "2"}, "T": {"type": "DT_FLOAT"}}}, {"name": "StatefulPartitionedCall/simplified_model_with_melspec/bidirectional/forward_lstm/PartitionedCall/while/merge/_97", "op": "Merge", "input": ["StatefulPartitionedCall/simplified_model_with_melspec/bidirectional/forward_lstm/PartitionedCall/while/enter/_86", "StatefulPartitionedCall/simplified_model_with_melspec/bidirectional/forward_lstm/PartitionedCall/while/next_iteration/_133"], "attr": {"N": {"i": "2"}, "T": {"type": "DT_FLOAT"}}}, {"name": "StatefulPartitionedCall/simplified_model_with_melspec/bidirectional/forward_lstm/PartitionedCall/while/merge/_96", "op": "Merge", "input": ["StatefulPartitionedCall/simplified_model_with_melspec/bidirectional/forward_lstm/PartitionedCall/while/enter/_85", "StatefulPartitionedCall/simplified_model_with_melspec/bidirectional/forward_lstm/PartitionedCall/while/next_iteration/_132"], "attr": {"N": {"i": "2"}, "T": {"type": "DT_VARIANT"}}}, {"name": "StatefulPartitionedCall/simplified_model_with_melspec/bidirectional/forward_lstm/PartitionedCall/while/cond/_80/while/Less", "op": "Less", "input": ["StatefulPartitionedCall/simplified_model_with_melspec/bidirectional/forward_lstm/PartitionedCall/while/merge/_95", "StatefulPartitionedCall/simplified_model_with_melspec/bidirectional/forward_lstm/PartitionedCall/while/merge/_99", "^StatefulPartitionedCall/simplified_model_with_melspec/bidirectional/forward_lstm/PartitionedCall/while/merge/_93"], "attr": {"T": {"type": "DT_INT32"}}}, {"name": "StatefulPartitionedCall/simplified_model_with_melspec/bidirectional/backward_lstm/PartitionedCall/while/merge/_158", "op": "Merge", "input": ["StatefulPartitionedCall/simplified_model_with_melspec/bidirectional/backward_lstm/PartitionedCall/while/enter/_147", "StatefulPartitionedCall/simplified_model_with_melspec/bidirectional/backward_lstm/PartitionedCall/while/next_iteration/_194"], "attr": {"N": {"i": "2"}, "T": {"type": "DT_FLOAT"}}}, {"name": "StatefulPartitionedCall/simplified_model_with_melspec/bidirectional/backward_lstm/PartitionedCall/while/merge/_157", "op": "Merge", "input": ["StatefulPartitionedCall/simplified_model_with_melspec/bidirectional/backward_lstm/PartitionedCall/while/enter/_146", "StatefulPartitionedCall/simplified_model_with_melspec/bidirectional/backward_lstm/PartitionedCall/while/next_iteration/_193"], "attr": {"N": {"i": "2"}, "T": {"type": "DT_FLOAT"}}}, {"name": "StatefulPartitionedCall/simplified_model_with_melspec/bidirectional/backward_lstm/PartitionedCall/while/merge/_156", "op": "Merge", "input": ["StatefulPartitionedCall/simplified_model_with_melspec/bidirectional/backward_lstm/PartitionedCall/while/enter/_145", "StatefulPartitionedCall/simplified_model_with_melspec/bidirectional/backward_lstm/PartitionedCall/while/next_iteration/_192"], "attr": {"N": {"i": "2"}, "T": {"type": "DT_VARIANT"}}}, {"name": "StatefulPartitionedCall/simplified_model_with_melspec/bidirectional/backward_lstm/PartitionedCall/while/cond/_140/while/Less", "op": "Less", "input": ["StatefulPartitionedCall/simplified_model_with_melspec/bidirectional/backward_lstm/PartitionedCall/while/merge/_155", "StatefulPartitionedCall/simplified_model_with_melspec/bidirectional/backward_lstm/PartitionedCall/while/merge/_159", "^StatefulPartitionedCall/simplified_model_with_melspec/bidirectional/backward_lstm/PartitionedCall/while/merge/_153"], "attr": {"T": {"type": "DT_INT32"}}}, {"name": "StatefulPartitionedCall/simplified_model_with_melspec/bidirectional/forward_lstm/PartitionedCall/while/LoopCond/_104", "op": "LoopCond", "input": ["StatefulPartitionedCall/simplified_model_with_melspec/bidirectional/forward_lstm/PartitionedCall/while/cond/_80/while/Less"]}, {"name": "StatefulPartitionedCall/simplified_model_with_melspec/bidirectional/backward_lstm/PartitionedCall/while/LoopCond/_164", "op": "LoopCond", "input": ["StatefulPartitionedCall/simplified_model_with_melspec/bidirectional/backward_lstm/PartitionedCall/while/cond/_140/while/Less"]}, {"name": "StatefulPartitionedCall/simplified_model_with_melspec/bidirectional/forward_lstm/PartitionedCall/while/Func/StatefulPartitionedCall/simplified_model_with_melspec/bidirectional/forward_lstm/PartitionedCall/input/_38_switch/_110", "op": "Switch", "input": ["StatefulPartitionedCall/simplified_model_with_melspec/bidirectional/forward_lstm/PartitionedCall/while/merge/_98", "StatefulPartitionedCall/simplified_model_with_melspec/bidirectional/forward_lstm/PartitionedCall/while/LoopCond/_104"], "attr": {"T": {"type": "DT_FLOAT"}}}, {"name": "StatefulPartitionedCall/simplified_model_with_melspec/bidirectional/forward_lstm/PartitionedCall/while/StatefulPartitionedCall/simplified_model_with_melspec/bidirectional/forward_lstm/PartitionedCall/TensorArrayUnstack/TensorListFromTensor_switch/_112", "op": "Switch", "input": ["StatefulPartitionedCall/simplified_model_with_melspec/bidirectional/forward_lstm/PartitionedCall/while/merge/_100", "StatefulPartitionedCall/simplified_model_with_melspec/bidirectional/forward_lstm/PartitionedCall/while/LoopCond/_104"], "attr": {"T": {"type": "DT_VARIANT"}}}, {"name": "StatefulPartitionedCall/simplified_model_with_melspec/bidirectional/forward_lstm/PartitionedCall/while/Func/StatefulPartitionedCall/simplified_model_with_melspec/bidirectional/forward_lstm/PartitionedCall/input/_39_switch/_113", "op": "Switch", "input": ["StatefulPartitionedCall/simplified_model_with_melspec/bidirectional/forward_lstm/PartitionedCall/while/merge/_101", "StatefulPartitionedCall/simplified_model_with_melspec/bidirectional/forward_lstm/PartitionedCall/while/LoopCond/_104"], "attr": {"T": {"type": "DT_FLOAT"}}}, {"name": "StatefulPartitionedCall/simplified_model_with_melspec/bidirectional/forward_lstm/PartitionedCall/while/Func/StatefulPartitionedCall/simplified_model_with_melspec/bidirectional/forward_lstm/PartitionedCall/input/_37_switch/_109", "op": "Switch", "input": ["StatefulPartitionedCall/simplified_model_with_melspec/bidirectional/forward_lstm/PartitionedCall/while/merge/_97", "StatefulPartitionedCall/simplified_model_with_melspec/bidirectional/forward_lstm/PartitionedCall/while/LoopCond/_104"], "attr": {"T": {"type": "DT_FLOAT"}}}, {"name": "StatefulPartitionedCall/simplified_model_with_melspec/bidirectional/forward_lstm/PartitionedCall/while/Func/StatefulPartitionedCall/simplified_model_with_melspec/bidirectional/forward_lstm/PartitionedCall/input/_40_switch/_114", "op": "Switch", "input": ["StatefulPartitionedCall/simplified_model_with_melspec/bidirectional/forward_lstm/PartitionedCall/while/merge/_102", "StatefulPartitionedCall/simplified_model_with_melspec/bidirectional/forward_lstm/PartitionedCall/while/LoopCond/_104"], "attr": {"T": {"type": "DT_FLOAT"}}}, {"name": "StatefulPartitionedCall/simplified_model_with_melspec/bidirectional/forward_lstm/PartitionedCall/while/Func/StatefulPartitionedCall/simplified_model_with_melspec/bidirectional/forward_lstm/PartitionedCall/input/_41_switch/_115", "op": "Switch", "input": ["StatefulPartitionedCall/simplified_model_with_melspec/bidirectional/forward_lstm/PartitionedCall/while/merge/_103", "StatefulPartitionedCall/simplified_model_with_melspec/bidirectional/forward_lstm/PartitionedCall/while/LoopCond/_104"], "attr": {"T": {"type": "DT_FLOAT"}}}, {"name": "StatefulPartitionedCall/simplified_model_with_melspec/bidirectional/forward_lstm/PartitionedCall/while/StatefulPartitionedCall/simplified_model_with_melspec/bidirectional/forward_lstm/PartitionedCall/time_switch/_107", "op": "Switch", "input": ["StatefulPartitionedCall/simplified_model_with_melspec/bidirectional/forward_lstm/PartitionedCall/while/merge/_95", "StatefulPartitionedCall/simplified_model_with_melspec/bidirectional/forward_lstm/PartitionedCall/while/LoopCond/_104"], "attr": {"T": {"type": "DT_INT32"}}}, {"name": "StatefulPartitionedCall/simplified_model_with_melspec/bidirectional/forward_lstm/PartitionedCall/while/StatefulPartitionedCall/simplified_model_with_melspec/bidirectional/forward_lstm/PartitionedCall/while/loop_counter_switch/_105", "op": "Switch", "input": ["StatefulPartitionedCall/simplified_model_with_melspec/bidirectional/forward_lstm/PartitionedCall/while/merge/_93", "StatefulPartitionedCall/simplified_model_with_melspec/bidirectional/forward_lstm/PartitionedCall/while/LoopCond/_104"], "attr": {"T": {"type": "DT_INT32"}}}, {"name": "StatefulPartitionedCall/simplified_model_with_melspec/bidirectional/forward_lstm/PartitionedCall/while/StatefulPartitionedCall/simplified_model_with_melspec/bidirectional/forward_lstm/PartitionedCall/TensorArrayV2_1_switch/_108", "op": "Switch", "input": ["StatefulPartitionedCall/simplified_model_with_melspec/bidirectional/forward_lstm/PartitionedCall/while/merge/_96", "StatefulPartitionedCall/simplified_model_with_melspec/bidirectional/forward_lstm/PartitionedCall/while/LoopCond/_104"], "attr": {"T": {"type": "DT_VARIANT"}}}, {"name": "StatefulPartitionedCall/simplified_model_with_melspec/bidirectional/forward_lstm/PartitionedCall/while/StatefulPartitionedCall/simplified_model_with_melspec/bidirectional/forward_lstm/PartitionedCall/strided_slice_switch/_111", "op": "Switch", "input": ["StatefulPartitionedCall/simplified_model_with_melspec/bidirectional/forward_lstm/PartitionedCall/while/merge/_99", "StatefulPartitionedCall/simplified_model_with_melspec/bidirectional/forward_lstm/PartitionedCall/while/LoopCond/_104"], "attr": {"T": {"type": "DT_INT32"}}}, {"name": "StatefulPartitionedCall/simplified_model_with_melspec/bidirectional/backward_lstm/PartitionedCall/while/Func/StatefulPartitionedCall/simplified_model_with_melspec/bidirectional/backward_lstm/PartitionedCall/input/_49_switch/_170", "op": "Switch", "input": ["StatefulPartitionedCall/simplified_model_with_melspec/bidirectional/backward_lstm/PartitionedCall/while/merge/_158", "StatefulPartitionedCall/simplified_model_with_melspec/bidirectional/backward_lstm/PartitionedCall/while/LoopCond/_164"], "attr": {"T": {"type": "DT_FLOAT"}}}, {"name": "StatefulPartitionedCall/simplified_model_with_melspec/bidirectional/backward_lstm/PartitionedCall/while/StatefulPartitionedCall/simplified_model_with_melspec/bidirectional/backward_lstm/PartitionedCall/TensorArrayUnstack/TensorListFromTensor_switch/_172", "op": "Switch", "input": ["StatefulPartitionedCall/simplified_model_with_melspec/bidirectional/backward_lstm/PartitionedCall/while/merge/_160", "StatefulPartitionedCall/simplified_model_with_melspec/bidirectional/backward_lstm/PartitionedCall/while/LoopCond/_164"], "attr": {"T": {"type": "DT_VARIANT"}}}, {"name": "StatefulPartitionedCall/simplified_model_with_melspec/bidirectional/backward_lstm/PartitionedCall/while/Func/StatefulPartitionedCall/simplified_model_with_melspec/bidirectional/backward_lstm/PartitionedCall/input/_50_switch/_173", "op": "Switch", "input": ["StatefulPartitionedCall/simplified_model_with_melspec/bidirectional/backward_lstm/PartitionedCall/while/merge/_161", "StatefulPartitionedCall/simplified_model_with_melspec/bidirectional/backward_lstm/PartitionedCall/while/LoopCond/_164"], "attr": {"T": {"type": "DT_FLOAT"}}}, {"name": "StatefulPartitionedCall/simplified_model_with_melspec/bidirectional/backward_lstm/PartitionedCall/while/Func/StatefulPartitionedCall/simplified_model_with_melspec/bidirectional/backward_lstm/PartitionedCall/input/_48_switch/_169", "op": "Switch", "input": ["StatefulPartitionedCall/simplified_model_with_melspec/bidirectional/backward_lstm/PartitionedCall/while/merge/_157", "StatefulPartitionedCall/simplified_model_with_melspec/bidirectional/backward_lstm/PartitionedCall/while/LoopCond/_164"], "attr": {"T": {"type": "DT_FLOAT"}}}, {"name": "StatefulPartitionedCall/simplified_model_with_melspec/bidirectional/backward_lstm/PartitionedCall/while/Func/StatefulPartitionedCall/simplified_model_with_melspec/bidirectional/backward_lstm/PartitionedCall/input/_51_switch/_174", "op": "Switch", "input": ["StatefulPartitionedCall/simplified_model_with_melspec/bidirectional/backward_lstm/PartitionedCall/while/merge/_162", "StatefulPartitionedCall/simplified_model_with_melspec/bidirectional/backward_lstm/PartitionedCall/while/LoopCond/_164"], "attr": {"T": {"type": "DT_FLOAT"}}}, {"name": "StatefulPartitionedCall/simplified_model_with_melspec/bidirectional/backward_lstm/PartitionedCall/while/Func/StatefulPartitionedCall/simplified_model_with_melspec/bidirectional/backward_lstm/PartitionedCall/input/_52_switch/_175", "op": "Switch", "input": ["StatefulPartitionedCall/simplified_model_with_melspec/bidirectional/backward_lstm/PartitionedCall/while/merge/_163", "StatefulPartitionedCall/simplified_model_with_melspec/bidirectional/backward_lstm/PartitionedCall/while/LoopCond/_164"], "attr": {"T": {"type": "DT_FLOAT"}}}, {"name": "StatefulPartitionedCall/simplified_model_with_melspec/bidirectional/backward_lstm/PartitionedCall/while/StatefulPartitionedCall/simplified_model_with_melspec/bidirectional/backward_lstm/PartitionedCall/time_switch/_167", "op": "Switch", "input": ["StatefulPartitionedCall/simplified_model_with_melspec/bidirectional/backward_lstm/PartitionedCall/while/merge/_155", "StatefulPartitionedCall/simplified_model_with_melspec/bidirectional/backward_lstm/PartitionedCall/while/LoopCond/_164"], "attr": {"T": {"type": "DT_INT32"}}}, {"name": "StatefulPartitionedCall/simplified_model_with_melspec/bidirectional/backward_lstm/PartitionedCall/while/StatefulPartitionedCall/simplified_model_with_melspec/bidirectional/backward_lstm/PartitionedCall/while/loop_counter_switch/_165", "op": "Switch", "input": ["StatefulPartitionedCall/simplified_model_with_melspec/bidirectional/backward_lstm/PartitionedCall/while/merge/_153", "StatefulPartitionedCall/simplified_model_with_melspec/bidirectional/backward_lstm/PartitionedCall/while/LoopCond/_164"], "attr": {"T": {"type": "DT_INT32"}}}, {"name": "StatefulPartitionedCall/simplified_model_with_melspec/bidirectional/backward_lstm/PartitionedCall/while/StatefulPartitionedCall/simplified_model_with_melspec/bidirectional/backward_lstm/PartitionedCall/TensorArrayV2_1_switch/_168", "op": "Switch", "input": ["StatefulPartitionedCall/simplified_model_with_melspec/bidirectional/backward_lstm/PartitionedCall/while/merge/_156", "StatefulPartitionedCall/simplified_model_with_melspec/bidirectional/backward_lstm/PartitionedCall/while/LoopCond/_164"], "attr": {"T": {"type": "DT_VARIANT"}}}, {"name": "StatefulPartitionedCall/simplified_model_with_melspec/bidirectional/backward_lstm/PartitionedCall/while/StatefulPartitionedCall/simplified_model_with_melspec/bidirectional/backward_lstm/PartitionedCall/strided_slice_switch/_171", "op": "Switch", "input": ["StatefulPartitionedCall/simplified_model_with_melspec/bidirectional/backward_lstm/PartitionedCall/while/merge/_159", "StatefulPartitionedCall/simplified_model_with_melspec/bidirectional/backward_lstm/PartitionedCall/while/LoopCond/_164"], "attr": {"T": {"type": "DT_INT32"}}}, {"name": "StatefulPartitionedCall/simplified_model_with_melspec/bidirectional/forward_lstm/PartitionedCall/while/loop_body_control/_116", "op": "Identity", "input": ["StatefulPartitionedCall/simplified_model_with_melspec/bidirectional/forward_lstm/PartitionedCall/while/StatefulPartitionedCall/simplified_model_with_melspec/bidirectional/forward_lstm/PartitionedCall/while/loop_counter_switch/_105:1"], "attr": {"_has_manual_control_dependencies": {"b": true}, "T": {"type": "DT_INT32"}}}, {"name": "StatefulPartitionedCall/simplified_model_with_melspec/bidirectional/forward_lstm/PartitionedCall/while/exit/_120", "op": "Exit", "input": ["StatefulPartitionedCall/simplified_model_with_melspec/bidirectional/forward_lstm/PartitionedCall/while/StatefulPartitionedCall/simplified_model_with_melspec/bidirectional/forward_lstm/PartitionedCall/TensorArrayV2_1_switch/_108"], "attr": {"T": {"type": "DT_VARIANT"}}}, {"name": "StatefulPartitionedCall/simplified_model_with_melspec/bidirectional/backward_lstm/PartitionedCall/while/loop_body_control/_176", "op": "Identity", "input": ["StatefulPartitionedCall/simplified_model_with_melspec/bidirectional/backward_lstm/PartitionedCall/while/StatefulPartitionedCall/simplified_model_with_melspec/bidirectional/backward_lstm/PartitionedCall/while/loop_counter_switch/_165:1"], "attr": {"_has_manual_control_dependencies": {"b": true}, "T": {"type": "DT_INT32"}}}, {"name": "StatefulPartitionedCall/simplified_model_with_melspec/bidirectional/backward_lstm/PartitionedCall/while/exit/_180", "op": "Exit", "input": ["StatefulPartitionedCall/simplified_model_with_melspec/bidirectional/backward_lstm/PartitionedCall/while/StatefulPartitionedCall/simplified_model_with_melspec/bidirectional/backward_lstm/PartitionedCall/TensorArrayV2_1_switch/_168"], "attr": {"T": {"type": "DT_VARIANT"}}}, {"name": "StatefulPartitionedCall/simplified_model_with_melspec/bidirectional/forward_lstm/PartitionedCall/while/body/_81/while/split/split_dim", "op": "Const", "input": ["^StatefulPartitionedCall/simplified_model_with_melspec/bidirectional/forward_lstm/PartitionedCall/while/loop_body_control/_116"], "attr": {"value": {"tensor": {"dtype": "DT_INT32", "tensorShape": {}}}, "dtype": {"type": "DT_INT32"}}}, {"name": "StatefulPartitionedCall/simplified_model_with_melspec/bidirectional/forward_lstm/PartitionedCall/while/next_iteration/_136", "op": "NextIteration", "input": ["StatefulPartitionedCall/simplified_model_with_melspec/bidirectional/forward_lstm/PartitionedCall/while/StatefulPartitionedCall/simplified_model_with_melspec/bidirectional/forward_lstm/PartitionedCall/TensorArrayUnstack/TensorListFromTensor_switch/_112:1", "^StatefulPartitionedCall/simplified_model_with_melspec/bidirectional/forward_lstm/PartitionedCall/while/loop_body_control/_116"], "attr": {"T": {"type": "DT_VARIANT"}}}, {"name": "StatefulPartitionedCall/simplified_model_with_melspec/bidirectional/forward_lstm/PartitionedCall/while/body/_81/while/TensorArrayV2Read/TensorListGetItem/element_shape", "op": "Const", "input": ["^StatefulPartitionedCall/simplified_model_with_melspec/bidirectional/forward_lstm/PartitionedCall/while/loop_body_control/_116"], "attr": {"value": {"tensor": {"dtype": "DT_INT32", "tensorShape": {"dim": [{"size": "2"}]}}}, "dtype": {"type": "DT_INT32"}}}, {"name": "StatefulPartitionedCall/simplified_model_with_melspec/bidirectional/forward_lstm/PartitionedCall/while/next_iteration/_137", "op": "NextIteration", "input": ["StatefulPartitionedCall/simplified_model_with_melspec/bidirectional/forward_lstm/PartitionedCall/while/Func/StatefulPartitionedCall/simplified_model_with_melspec/bidirectional/forward_lstm/PartitionedCall/input/_39_switch/_113:1", "^StatefulPartitionedCall/simplified_model_with_melspec/bidirectional/forward_lstm/PartitionedCall/while/loop_body_control/_116"], "attr": {"T": {"type": "DT_FLOAT"}}}, {"name": "StatefulPartitionedCall/simplified_model_with_melspec/bidirectional/forward_lstm/PartitionedCall/while/next_iteration/_138", "op": "NextIteration", "input": ["StatefulPartitionedCall/simplified_model_with_melspec/bidirectional/forward_lstm/PartitionedCall/while/Func/StatefulPartitionedCall/simplified_model_with_melspec/bidirectional/forward_lstm/PartitionedCall/input/_40_switch/_114:1", "^StatefulPartitionedCall/simplified_model_with_melspec/bidirectional/forward_lstm/PartitionedCall/while/loop_body_control/_116"], "attr": {"T": {"type": "DT_FLOAT"}}}, {"name": "StatefulPartitionedCall/simplified_model_with_melspec/bidirectional/forward_lstm/PartitionedCall/while/body/_81/while/MatMul_1", "op": "MatMul", "input": ["StatefulPartitionedCall/simplified_model_with_melspec/bidirectional/forward_lstm/PartitionedCall/while/Func/StatefulPartitionedCall/simplified_model_with_melspec/bidirectional/forward_lstm/PartitionedCall/input/_37_switch/_109:1", "StatefulPartitionedCall/simplified_model_with_melspec/bidirectional/forward_lstm/PartitionedCall/while/Func/StatefulPartitionedCall/simplified_model_with_melspec/bidirectional/forward_lstm/PartitionedCall/input/_40_switch/_114:1", "^StatefulPartitionedCall/simplified_model_with_melspec/bidirectional/forward_lstm/PartitionedCall/while/loop_body_control/_116"], "device": "/device:CPU:0", "attr": {"transpose_a": {"b": false}, "T": {"type": "DT_FLOAT"}, "transpose_b": {"b": false}}}, {"name": "StatefulPartitionedCall/simplified_model_with_melspec/bidirectional/forward_lstm/PartitionedCall/while/next_iteration/_139", "op": "NextIteration", "input": ["StatefulPartitionedCall/simplified_model_with_melspec/bidirectional/forward_lstm/PartitionedCall/while/Func/StatefulPartitionedCall/simplified_model_with_melspec/bidirectional/forward_lstm/PartitionedCall/input/_41_switch/_115:1", "^StatefulPartitionedCall/simplified_model_with_melspec/bidirectional/forward_lstm/PartitionedCall/while/loop_body_control/_116"], "attr": {"T": {"type": "DT_FLOAT"}}}, {"name": "Func/StatefulPartitionedCall/simplified_model_with_melspec/bidirectional/forward_lstm/PartitionedCall/while/body/_81/input/_336", "op": "Identity", "input": ["StatefulPartitionedCall/simplified_model_with_melspec/bidirectional/forward_lstm/PartitionedCall/while/StatefulPartitionedCall/simplified_model_with_melspec/bidirectional/forward_lstm/PartitionedCall/time_switch/_107:1", "^StatefulPartitionedCall/simplified_model_with_melspec/bidirectional/forward_lstm/PartitionedCall/while/loop_body_control/_116"], "attr": {"T": {"type": "DT_INT32"}}}, {"name": "StatefulPartitionedCall/simplified_model_with_melspec/bidirectional/forward_lstm/PartitionedCall/while/body/_81/while/add_2/y", "op": "Const", "input": ["^StatefulPartitionedCall/simplified_model_with_melspec/bidirectional/forward_lstm/PartitionedCall/while/loop_body_control/_116"], "attr": {"value": {"tensor": {"dtype": "DT_INT32", "tensorShape": {}}}, "dtype": {"type": "DT_INT32"}}}, {"name": "StatefulPartitionedCall/simplified_model_with_melspec/bidirectional/forward_lstm/PartitionedCall/while/body/_81/while/add_3/y", "op": "Const", "input": ["^StatefulPartitionedCall/simplified_model_with_melspec/bidirectional/forward_lstm/PartitionedCall/while/loop_body_control/_116"], "attr": {"value": {"tensor": {"dtype": "DT_INT32", "tensorShape": {}}}, "dtype": {"type": "DT_INT32"}}}, {"name": "StatefulPartitionedCall/simplified_model_with_melspec/bidirectional/forward_lstm/PartitionedCall/while/next_iteration/_135", "op": "NextIteration", "input": ["StatefulPartitionedCall/simplified_model_with_melspec/bidirectional/forward_lstm/PartitionedCall/while/StatefulPartitionedCall/simplified_model_with_melspec/bidirectional/forward_lstm/PartitionedCall/strided_slice_switch/_111:1", "^StatefulPartitionedCall/simplified_model_with_melspec/bidirectional/forward_lstm/PartitionedCall/while/loop_body_control/_116"], "attr": {"T": {"type": "DT_INT32"}}}, {"name": "StatefulPartitionedCall/simplified_model_with_melspec/bidirectional/forward_lstm/PartitionedCall/TensorArrayV2Stack/TensorListStack", "op": "TensorListStack", "input": ["StatefulPartitionedCall/simplified_model_with_melspec/bidirectional/forward_lstm/PartitionedCall/while/exit/_120", "StatefulPartitionedCall/simplified_model_with_melspec/bidirectional/forward_lstm/PartitionedCall/TensorArrayV2Stack/TensorListStack/element_shape"], "attr": {"num_elements": {"i": "-1"}, "element_dtype": {"type": "DT_FLOAT"}}}, {"name": "StatefulPartitionedCall/simplified_model_with_melspec/bidirectional/backward_lstm/PartitionedCall/while/body/_141/while/split/split_dim", "op": "Const", "input": ["^StatefulPartitionedCall/simplified_model_with_melspec/bidirectional/backward_lstm/PartitionedCall/while/loop_body_control/_176"], "attr": {"value": {"tensor": {"dtype": "DT_INT32", "tensorShape": {}}}, "dtype": {"type": "DT_INT32"}}}, {"name": "StatefulPartitionedCall/simplified_model_with_melspec/bidirectional/backward_lstm/PartitionedCall/while/next_iteration/_196", "op": "NextIteration", "input": ["StatefulPartitionedCall/simplified_model_with_melspec/bidirectional/backward_lstm/PartitionedCall/while/StatefulPartitionedCall/simplified_model_with_melspec/bidirectional/backward_lstm/PartitionedCall/TensorArrayUnstack/TensorListFromTensor_switch/_172:1", "^StatefulPartitionedCall/simplified_model_with_melspec/bidirectional/backward_lstm/PartitionedCall/while/loop_body_control/_176"], "attr": {"T": {"type": "DT_VARIANT"}}}, {"name": "StatefulPartitionedCall/simplified_model_with_melspec/bidirectional/backward_lstm/PartitionedCall/while/body/_141/while/TensorArrayV2Read/TensorListGetItem/element_shape", "op": "Const", "input": ["^StatefulPartitionedCall/simplified_model_with_melspec/bidirectional/backward_lstm/PartitionedCall/while/loop_body_control/_176"], "attr": {"value": {"tensor": {"dtype": "DT_INT32", "tensorShape": {"dim": [{"size": "2"}]}}}, "dtype": {"type": "DT_INT32"}}}, {"name": "StatefulPartitionedCall/simplified_model_with_melspec/bidirectional/backward_lstm/PartitionedCall/while/next_iteration/_197", "op": "NextIteration", "input": ["StatefulPartitionedCall/simplified_model_with_melspec/bidirectional/backward_lstm/PartitionedCall/while/Func/StatefulPartitionedCall/simplified_model_with_melspec/bidirectional/backward_lstm/PartitionedCall/input/_50_switch/_173:1", "^StatefulPartitionedCall/simplified_model_with_melspec/bidirectional/backward_lstm/PartitionedCall/while/loop_body_control/_176"], "attr": {"T": {"type": "DT_FLOAT"}}}, {"name": "StatefulPartitionedCall/simplified_model_with_melspec/bidirectional/backward_lstm/PartitionedCall/while/next_iteration/_198", "op": "NextIteration", "input": ["StatefulPartitionedCall/simplified_model_with_melspec/bidirectional/backward_lstm/PartitionedCall/while/Func/StatefulPartitionedCall/simplified_model_with_melspec/bidirectional/backward_lstm/PartitionedCall/input/_51_switch/_174:1", "^StatefulPartitionedCall/simplified_model_with_melspec/bidirectional/backward_lstm/PartitionedCall/while/loop_body_control/_176"], "attr": {"T": {"type": "DT_FLOAT"}}}, {"name": "StatefulPartitionedCall/simplified_model_with_melspec/bidirectional/backward_lstm/PartitionedCall/while/body/_141/while/MatMul_1", "op": "MatMul", "input": ["StatefulPartitionedCall/simplified_model_with_melspec/bidirectional/backward_lstm/PartitionedCall/while/Func/StatefulPartitionedCall/simplified_model_with_melspec/bidirectional/backward_lstm/PartitionedCall/input/_48_switch/_169:1", "StatefulPartitionedCall/simplified_model_with_melspec/bidirectional/backward_lstm/PartitionedCall/while/Func/StatefulPartitionedCall/simplified_model_with_melspec/bidirectional/backward_lstm/PartitionedCall/input/_51_switch/_174:1", "^StatefulPartitionedCall/simplified_model_with_melspec/bidirectional/backward_lstm/PartitionedCall/while/loop_body_control/_176"], "device": "/device:CPU:0", "attr": {"transpose_a": {"b": false}, "T": {"type": "DT_FLOAT"}, "transpose_b": {"b": false}}}, {"name": "StatefulPartitionedCall/simplified_model_with_melspec/bidirectional/backward_lstm/PartitionedCall/while/next_iteration/_199", "op": "NextIteration", "input": ["StatefulPartitionedCall/simplified_model_with_melspec/bidirectional/backward_lstm/PartitionedCall/while/Func/StatefulPartitionedCall/simplified_model_with_melspec/bidirectional/backward_lstm/PartitionedCall/input/_52_switch/_175:1", "^StatefulPartitionedCall/simplified_model_with_melspec/bidirectional/backward_lstm/PartitionedCall/while/loop_body_control/_176"], "attr": {"T": {"type": "DT_FLOAT"}}}, {"name": "Func/StatefulPartitionedCall/simplified_model_with_melspec/bidirectional/backward_lstm/PartitionedCall/while/body/_141/input/_373", "op": "Identity", "input": ["StatefulPartitionedCall/simplified_model_with_melspec/bidirectional/backward_lstm/PartitionedCall/while/StatefulPartitionedCall/simplified_model_with_melspec/bidirectional/backward_lstm/PartitionedCall/time_switch/_167:1", "^StatefulPartitionedCall/simplified_model_with_melspec/bidirectional/backward_lstm/PartitionedCall/while/loop_body_control/_176"], "attr": {"T": {"type": "DT_INT32"}}}, {"name": "StatefulPartitionedCall/simplified_model_with_melspec/bidirectional/backward_lstm/PartitionedCall/while/body/_141/while/add_2/y", "op": "Const", "input": ["^StatefulPartitionedCall/simplified_model_with_melspec/bidirectional/backward_lstm/PartitionedCall/while/loop_body_control/_176"], "attr": {"value": {"tensor": {"dtype": "DT_INT32", "tensorShape": {}}}, "dtype": {"type": "DT_INT32"}}}, {"name": "StatefulPartitionedCall/simplified_model_with_melspec/bidirectional/backward_lstm/PartitionedCall/while/body/_141/while/add_3/y", "op": "Const", "input": ["^StatefulPartitionedCall/simplified_model_with_melspec/bidirectional/backward_lstm/PartitionedCall/while/loop_body_control/_176"], "attr": {"value": {"tensor": {"dtype": "DT_INT32", "tensorShape": {}}}, "dtype": {"type": "DT_INT32"}}}, {"name": "StatefulPartitionedCall/simplified_model_with_melspec/bidirectional/backward_lstm/PartitionedCall/while/next_iteration/_195", "op": "NextIteration", "input": ["StatefulPartitionedCall/simplified_model_with_melspec/bidirectional/backward_lstm/PartitionedCall/while/StatefulPartitionedCall/simplified_model_with_melspec/bidirectional/backward_lstm/PartitionedCall/strided_slice_switch/_171:1", "^StatefulPartitionedCall/simplified_model_with_melspec/bidirectional/backward_lstm/PartitionedCall/while/loop_body_control/_176"], "attr": {"T": {"type": "DT_INT32"}}}, {"name": "StatefulPartitionedCall/simplified_model_with_melspec/bidirectional/backward_lstm/PartitionedCall/TensorArrayV2Stack/TensorListStack", "op": "TensorListStack", "input": ["StatefulPartitionedCall/simplified_model_with_melspec/bidirectional/backward_lstm/PartitionedCall/while/exit/_180", "StatefulPartitionedCall/simplified_model_with_melspec/bidirectional/backward_lstm/PartitionedCall/TensorArrayV2Stack/TensorListStack/element_shape"], "attr": {"num_elements": {"i": "-1"}, "element_dtype": {"type": "DT_FLOAT"}}}, {"name": "StatefulPartitionedCall/simplified_model_with_melspec/bidirectional/forward_lstm/PartitionedCall/while/body/_81/while/TensorArrayV2Read/TensorListGetItem", "op": "TensorListGetItem", "input": ["StatefulPartitionedCall/simplified_model_with_melspec/bidirectional/forward_lstm/PartitionedCall/while/StatefulPartitionedCall/simplified_model_with_melspec/bidirectional/forward_lstm/PartitionedCall/TensorArrayUnstack/TensorListFromTensor_switch/_112:1", "Func/StatefulPartitionedCall/simplified_model_with_melspec/bidirectional/forward_lstm/PartitionedCall/while/body/_81/input/_336", "StatefulPartitionedCall/simplified_model_with_melspec/bidirectional/forward_lstm/PartitionedCall/while/body/_81/while/TensorArrayV2Read/TensorListGetItem/element_shape"], "attr": {"element_dtype": {"type": "DT_FLOAT"}}}, {"name": "StatefulPartitionedCall/simplified_model_with_melspec/bidirectional/forward_lstm/PartitionedCall/while/body/_81/while/add_2", "op": "AddV2", "input": ["Func/StatefulPartitionedCall/simplified_model_with_melspec/bidirectional/forward_lstm/PartitionedCall/while/body/_81/input/_336", "StatefulPartitionedCall/simplified_model_with_melspec/bidirectional/forward_lstm/PartitionedCall/while/body/_81/while/add_2/y"], "attr": {"T": {"type": "DT_INT32"}}}, {"name": "StatefulPartitionedCall/simplified_model_with_melspec/bidirectional/forward_lstm/PartitionedCall/while/body/_81/while/add_3", "op": "AddV2", "input": ["StatefulPartitionedCall/simplified_model_with_melspec/bidirectional/forward_lstm/PartitionedCall/while/StatefulPartitionedCall/simplified_model_with_melspec/bidirectional/forward_lstm/PartitionedCall/while/loop_counter_switch/_105:1", "StatefulPartitionedCall/simplified_model_with_melspec/bidirectional/forward_lstm/PartitionedCall/while/body/_81/while/add_3/y"], "attr": {"T": {"type": "DT_INT32"}}}, {"name": "StatefulPartitionedCall/simplified_model_with_melspec/bidirectional/forward_lstm/PartitionedCall/transpose_1", "op": "Transpose", "input": ["StatefulPartitionedCall/simplified_model_with_melspec/bidirectional/forward_lstm/PartitionedCall/TensorArrayV2Stack/TensorListStack", "StatefulPartitionedCall/simplified_model_with_melspec/bidirectional/forward_lstm/PartitionedCall/transpose_1/perm"], "attr": {"Tperm": {"type": "DT_INT32"}, "T": {"type": "DT_FLOAT"}}}, {"name": "StatefulPartitionedCall/simplified_model_with_melspec/bidirectional/backward_lstm/PartitionedCall/while/body/_141/while/TensorArrayV2Read/TensorListGetItem", "op": "TensorListGetItem", "input": ["StatefulPartitionedCall/simplified_model_with_melspec/bidirectional/backward_lstm/PartitionedCall/while/StatefulPartitionedCall/simplified_model_with_melspec/bidirectional/backward_lstm/PartitionedCall/TensorArrayUnstack/TensorListFromTensor_switch/_172:1", "Func/StatefulPartitionedCall/simplified_model_with_melspec/bidirectional/backward_lstm/PartitionedCall/while/body/_141/input/_373", "StatefulPartitionedCall/simplified_model_with_melspec/bidirectional/backward_lstm/PartitionedCall/while/body/_141/while/TensorArrayV2Read/TensorListGetItem/element_shape"], "attr": {"element_dtype": {"type": "DT_FLOAT"}}}, {"name": "StatefulPartitionedCall/simplified_model_with_melspec/bidirectional/backward_lstm/PartitionedCall/while/body/_141/while/add_2", "op": "AddV2", "input": ["Func/StatefulPartitionedCall/simplified_model_with_melspec/bidirectional/backward_lstm/PartitionedCall/while/body/_141/input/_373", "StatefulPartitionedCall/simplified_model_with_melspec/bidirectional/backward_lstm/PartitionedCall/while/body/_141/while/add_2/y"], "attr": {"T": {"type": "DT_INT32"}}}, {"name": "StatefulPartitionedCall/simplified_model_with_melspec/bidirectional/backward_lstm/PartitionedCall/while/body/_141/while/add_3", "op": "AddV2", "input": ["StatefulPartitionedCall/simplified_model_with_melspec/bidirectional/backward_lstm/PartitionedCall/while/StatefulPartitionedCall/simplified_model_with_melspec/bidirectional/backward_lstm/PartitionedCall/while/loop_counter_switch/_165:1", "StatefulPartitionedCall/simplified_model_with_melspec/bidirectional/backward_lstm/PartitionedCall/while/body/_141/while/add_3/y"], "attr": {"T": {"type": "DT_INT32"}}}, {"name": "StatefulPartitionedCall/simplified_model_with_melspec/bidirectional/backward_lstm/PartitionedCall/transpose_1", "op": "Transpose", "input": ["StatefulPartitionedCall/simplified_model_with_melspec/bidirectional/backward_lstm/PartitionedCall/TensorArrayV2Stack/TensorListStack", "StatefulPartitionedCall/simplified_model_with_melspec/bidirectional/backward_lstm/PartitionedCall/transpose_1/perm"], "attr": {"Tperm": {"type": "DT_INT32"}, "T": {"type": "DT_FLOAT"}}}, {"name": "StatefulPartitionedCall/simplified_model_with_melspec/bidirectional/forward_lstm/PartitionedCall/while/body/_81/while/add", "op": "_FusedMatMul", "input": ["StatefulPartitionedCall/simplified_model_with_melspec/bidirectional/forward_lstm/PartitionedCall/while/body/_81/while/TensorArrayV2Read/TensorListGetItem", "StatefulPartitionedCall/simplified_model_with_melspec/bidirectional/forward_lstm/PartitionedCall/while/Func/StatefulPartitionedCall/simplified_model_with_melspec/bidirectional/forward_lstm/PartitionedCall/input/_39_switch/_113:1", "StatefulPartitionedCall/simplified_model_with_melspec/bidirectional/forward_lstm/PartitionedCall/while/body/_81/while/MatMul_1"], "device": "/device:CPU:0", "attr": {"transpose_a": {"b": false}, "transpose_b": {"b": false}, "fused_ops": {"list": {"s": ["Qmlhc0FkZA=="]}}, "leakyrelu_alpha": {"f": 0.2}, "num_args": {"i": "1"}, "epsilon": {"f": 0.0}, "T": {"type": "DT_FLOAT"}}}, {"name": "StatefulPartitionedCall/simplified_model_with_melspec/bidirectional/forward_lstm/PartitionedCall/while/next_iteration/_131", "op": "NextIteration", "input": ["StatefulPartitionedCall/simplified_model_with_melspec/bidirectional/forward_lstm/PartitionedCall/while/body/_81/while/add_2", "^StatefulPartitionedCall/simplified_model_with_melspec/bidirectional/forward_lstm/PartitionedCall/while/loop_body_control/_116"], "attr": {"T": {"type": "DT_INT32"}}}, {"name": "StatefulPartitionedCall/simplified_model_with_melspec/bidirectional/forward_lstm/PartitionedCall/while/next_iteration/_129", "op": "NextIteration", "input": ["StatefulPartitionedCall/simplified_model_with_melspec/bidirectional/forward_lstm/PartitionedCall/while/body/_81/while/add_3", "^StatefulPartitionedCall/simplified_model_with_melspec/bidirectional/forward_lstm/PartitionedCall/while/loop_body_control/_116"], "attr": {"T": {"type": "DT_INT32"}}}, {"name": "StatefulPartitionedCall/simplified_model_with_melspec/bidirectional/backward_lstm/PartitionedCall/while/body/_141/while/add", "op": "_FusedMatMul", "input": ["StatefulPartitionedCall/simplified_model_with_melspec/bidirectional/backward_lstm/PartitionedCall/while/body/_141/while/TensorArrayV2Read/TensorListGetItem", "StatefulPartitionedCall/simplified_model_with_melspec/bidirectional/backward_lstm/PartitionedCall/while/Func/StatefulPartitionedCall/simplified_model_with_melspec/bidirectional/backward_lstm/PartitionedCall/input/_50_switch/_173:1", "StatefulPartitionedCall/simplified_model_with_melspec/bidirectional/backward_lstm/PartitionedCall/while/body/_141/while/MatMul_1"], "device": "/device:CPU:0", "attr": {"transpose_a": {"b": false}, "transpose_b": {"b": false}, "fused_ops": {"list": {"s": ["Qmlhc0FkZA=="]}}, "num_args": {"i": "1"}, "leakyrelu_alpha": {"f": 0.2}, "epsilon": {"f": 0.0}, "T"…
istGetItem", "StatefulPartitionedCall/simplified_model_with_melspec/bidirectional_1/backward_lstm_1/PartitionedCall/while/Func/StatefulPartitionedCall/simplified_model_with_melspec/bidirectional_1/backward_lstm_1/PartitionedCall/input/_72_switch/_293:1", "StatefulPartitionedCall/simplified_model_with_melspec/bidirectional_1/backward_lstm_1/PartitionedCall/while/body/_261/while/MatMul_1"], "device": "/device:CPU:0", "attr": {"transpose_a": {"b": false}, "transpose_b": {"b": false}, "fused_ops": {"list": {"s": ["Qmlhc0FkZA=="]}}, "leakyrelu_alpha": {"f": 0.2}, "num_args": {"i": "1"}, "epsilon": {"f": 0.0}, "T": {"type": "DT_FLOAT"}}}, {"name": "StatefulPartitionedCall/simplified_model_with_melspec/bidirectional_1/backward_lstm_1/PartitionedCall/while/next_iteration/_311", "op": "NextIteration", "input": ["StatefulPartitionedCall/simplified_model_with_melspec/bidirectional_1/backward_lstm_1/PartitionedCall/while/body/_261/while/add_2", "^StatefulPartitionedCall/simplified_model_with_melspec/bidirectional_1/backward_lstm_1/PartitionedCall/while/loop_body_control/_296"], "attr": {"T": {"type": "DT_INT32"}}}, {"name": "StatefulPartitionedCall/simplified_model_with_melspec/bidirectional_1/backward_lstm_1/PartitionedCall/while/next_iteration/_309", "op": "NextIteration", "input": ["StatefulPartitionedCall/simplified_model_with_melspec/bidirectional_1/backward_lstm_1/PartitionedCall/while/body/_261/while/add_3", "^StatefulPartitionedCall/simplified_model_with_melspec/bidirectional_1/backward_lstm_1/PartitionedCall/while/loop_body_control/_296"], "attr": {"T": {"type": "DT_INT32"}}}, {"name": "StatefulPartitionedCall/simplified_model_with_melspec/bidirectional_1/ReverseV2", "op": "ReverseV2", "input": ["StatefulPartitionedCall/simplified_model_with_melspec/bidirectional_1/backward_lstm_1/PartitionedCall/transpose_1", "StatefulPartitionedCall/simplified_model_with_melspec/bidirectional_1/ReverseV2/axis"], "attr": {"Tidx": {"type": "DT_INT32"}, "T": {"type": "DT_FLOAT"}}}, {"name": "StatefulPartitionedCall/simplified_model_with_melspec/bidirectional_1/forward_lstm_1/PartitionedCall/while/body/_201/while/BiasAdd", "op": "BiasAdd", "input": ["StatefulPartitionedCall/simplified_model_with_melspec/bidirectional_1/forward_lstm_1/PartitionedCall/while/body/_201/while/add", "StatefulPartitionedCall/simplified_model_with_melspec/bidirectional_1/forward_lstm_1/PartitionedCall/while/Func/StatefulPartitionedCall/simplified_model_with_melspec/bidirectional_1/forward_lstm_1/PartitionedCall/input/_63_switch/_235:1"], "attr": {"data_format": {"s": "TkhXQw=="}, "T": {"type": "DT_FLOAT"}}}, {"name": "StatefulPartitionedCall/simplified_model_with_melspec/bidirectional_1/backward_lstm_1/PartitionedCall/while/body/_261/while/BiasAdd", "op": "BiasAdd", "input": ["StatefulPartitionedCall/simplified_model_with_melspec/bidirectional_1/backward_lstm_1/PartitionedCall/while/body/_261/while/add", "StatefulPartitionedCall/simplified_model_with_melspec/bidirectional_1/backward_lstm_1/PartitionedCall/while/Func/StatefulPartitionedCall/simplified_model_with_melspec/bidirectional_1/backward_lstm_1/PartitionedCall/input/_74_switch/_295:1"], "attr": {"data_format": {"s": "TkhXQw=="}, "T": {"type": "DT_FLOAT"}}}, {"name": "StatefulPartitionedCall/simplified_model_with_melspec/bidirectional_1/concat", "op": "ConcatV2", "input": ["StatefulPartitionedCall/simplified_model_with_melspec/bidirectional_1/forward_lstm_1/PartitionedCall/transpose_1", "StatefulPartitionedCall/simplified_model_with_melspec/bidirectional_1/ReverseV2", "StatefulPartitionedCall/simplified_model_with_melspec/bidirectional_1/concat/axis"], "attr": {"N": {"i": "2"}, "Tidx": {"type": "DT_INT32"}, "T": {"type": "DT_FLOAT"}}}, {"name": "StatefulPartitionedCall/simplified_model_with_melspec/bidirectional_1/forward_lstm_1/PartitionedCall/while/body/_201/while/split", "op": "Split", "input": ["StatefulPartitionedCall/simplified_model_with_melspec/bidirectional_1/forward_lstm_1/PartitionedCall/while/body/_201/while/split/split_dim", "StatefulPartitionedCall/simplified_model_with_melspec/bidirectional_1/forward_lstm_1/PartitionedCall/while/body/_201/while/BiasAdd"], "attr": {"num_split": {"i": "4"}, "T": {"type": "DT_FLOAT"}}}, {"name": "StatefulPartitionedCall/simplified_model_with_melspec/bidirectional_1/backward_lstm_1/PartitionedCall/while/body/_261/while/split", "op": "Split", "input": ["StatefulPartitionedCall/simplified_model_with_melspec/bidirectional_1/backward_lstm_1/PartitionedCall/while/body/_261/while/split/split_dim", "StatefulPartitionedCall/simplified_model_with_melspec/bidirectional_1/backward_lstm_1/PartitionedCall/while/body/_261/while/BiasAdd"], "attr": {"num_split": {"i": "4"}, "T": {"type": "DT_FLOAT"}}}, {"name": "StatefulPartitionedCall/simplified_model_with_melspec/lambda/strided_slice", "op": "StridedSlice", "input": ["StatefulPartitionedCall/simplified_model_with_melspec/bidirectional_1/concat", "StatefulPartitionedCall/simplified_model_with_melspec/lambda/strided_slice/stack", "StatefulPartitionedCall/simplified_model_with_melspec/lambda/strided_slice/stack_1", "StatefulPartitionedCall/simplified_model_with_melspec/lambda/strided_slice/stack_2"], "attr": {"shrink_axis_mask": {"i": "2"}, "new_axis_mask": {"i": "0"}, "Index": {"type": "DT_INT32"}, "begin_mask": {"i": "1"}, "end_mask": {"i": "1"}, "T": {"type": "DT_FLOAT"}, "ellipsis_mask": {"i": "0"}}}, {"name": "StatefulPartitionedCall/simplified_model_with_melspec/bidirectional_1/forward_lstm_1/PartitionedCall/while/body/_201/while/Sigmoid", "op": "Sigmoid", "input": ["StatefulPartitionedCall/simplified_model_with_melspec/bidirectional_1/forward_lstm_1/PartitionedCall/while/body/_201/while/split"], "attr": {"T": {"type": "DT_FLOAT"}}}, {"name": "StatefulPartitionedCall/simplified_model_with_melspec/bidirectional_1/forward_lstm_1/PartitionedCall/while/body/_201/while/Sigmoid_1", "op": "Sigmoid", "input": ["StatefulPartitionedCall/simplified_model_with_melspec/bidirectional_1/forward_lstm_1/PartitionedCall/while/body/_201/while/split:1"], "attr": {"T": {"type": "DT_FLOAT"}}}, {"name": "StatefulPartitionedCall/simplified_model_with_melspec/bidirectional_1/forward_lstm_1/PartitionedCall/while/body/_201/while/Tanh", "op": "Tanh", "input": ["StatefulPartitionedCall/simplified_model_with_melspec/bidirectional_1/forward_lstm_1/PartitionedCall/while/body/_201/while/split:2"], "attr": {"T": {"type": "DT_FLOAT"}}}, {"name": "StatefulPartitionedCall/simplified_model_with_melspec/bidirectional_1/forward_lstm_1/PartitionedCall/while/body/_201/while/Sigmoid_2", "op": "Sigmoid", "input": ["StatefulPartitionedCall/simplified_model_with_melspec/bidirectional_1/forward_lstm_1/PartitionedCall/while/body/_201/while/split:3"], "attr": {"T": {"type": "DT_FLOAT"}}}, {"name": "StatefulPartitionedCall/simplified_model_with_melspec/bidirectional_1/backward_lstm_1/PartitionedCall/while/body/_261/while/Sigmoid", "op": "Sigmoid", "input": ["StatefulPartitionedCall/simplified_model_with_melspec/bidirectional_1/backward_lstm_1/PartitionedCall/while/body/_261/while/split"], "attr": {"T": {"type": "DT_FLOAT"}}}, {"name": "StatefulPartitionedCall/simplified_model_with_melspec/bidirectional_1/backward_lstm_1/PartitionedCall/while/body/_261/while/Sigmoid_1", "op": "Sigmoid", "input": ["StatefulPartitionedCall/simplified_model_with_melspec/bidirectional_1/backward_lstm_1/PartitionedCall/while/body/_261/while/split:1"], "attr": {"T": {"type": "DT_FLOAT"}}}, {"name": "StatefulPartitionedCall/simplified_model_with_melspec/bidirectional_1/backward_lstm_1/PartitionedCall/while/body/_261/while/Tanh", "op": "Tanh", "input": ["StatefulPartitionedCall/simplified_model_with_melspec/bidirectional_1/backward_lstm_1/PartitionedCall/while/body/_261/while/split:2"], "attr": {"T": {"type": "DT_FLOAT"}}}, {"name": "StatefulPartitionedCall/simplified_model_with_melspec/bidirectional_1/backward_lstm_1/PartitionedCall/while/body/_261/while/Sigmoid_2", "op": "Sigmoid", "input": ["StatefulPartitionedCall/simplified_model_with_melspec/bidirectional_1/backward_lstm_1/PartitionedCall/while/body/_261/while/split:3"], "attr": {"T": {"type": "DT_FLOAT"}}}, {"name": "StatefulPartitionedCall/simplified_model_with_melspec/dense/BiasAdd", "op": "_FusedMatMul", "input": ["StatefulPartitionedCall/simplified_model_with_melspec/lambda/strided_slice", "StatefulPartitionedCall/simplified_model_with_melspec/dense/MatMul/ReadVariableOp", "StatefulPartitionedCall/simplified_model_with_melspec/dense/BiasAdd/ReadVariableOp"], "device": "/device:CPU:0", "attr": {"transpose_a": {"b": false}, "transpose_b": {"b": false}, "fused_ops": {"list": {"s": ["Qmlhc0FkZA=="]}}, "leakyrelu_alpha": {"f": 0.2}, "num_args": {"i": "1"}, "epsilon": {"f": 0.0}, "T": {"type": "DT_FLOAT"}}}, {"name": "StatefulPartitionedCall/simplified_model_with_melspec/bidirectional_1/forward_lstm_1/PartitionedCall/while/body/_201/while/mul", "op": "Mul", "input": ["StatefulPartitionedCall/simplified_model_with_melspec/bidirectional_1/forward_lstm_1/PartitionedCall/while/body/_201/while/Sigmoid_1", "StatefulPartitionedCall/simplified_model_with_melspec/bidirectional_1/forward_lstm_1/PartitionedCall/while/Func/StatefulPartitionedCall/simplified_model_with_melspec/bidirectional_1/forward_lstm_1/PartitionedCall/input/_60_switch/_230:1"], "attr": {"T": {"type": "DT_FLOAT"}}}, {"name": "StatefulPartitionedCall/simplified_model_with_melspec/bidirectional_1/forward_lstm_1/PartitionedCall/while/body/_201/while/mul_1", "op": "Mul", "input": ["StatefulPartitionedCall/simplified_model_with_melspec/bidirectional_1/forward_lstm_1/PartitionedCall/while/body/_201/while/Sigmoid", "StatefulPartitionedCall/simplified_model_with_melspec/bidirectional_1/forward_lstm_1/PartitionedCall/while/body/_201/while/Tanh"], "attr": {"T": {"type": "DT_FLOAT"}}}, {"name": "StatefulPartitionedCall/simplified_model_with_melspec/bidirectional_1/backward_lstm_1/PartitionedCall/while/body/_261/while/mul", "op": "Mul", "input": ["StatefulPartitionedCall/simplified_model_with_melspec/bidirectional_1/backward_lstm_1/PartitionedCall/while/body/_261/while/Sigmoid_1", "StatefulPartitionedCall/simplified_model_with_melspec/bidirectional_1/backward_lstm_1/PartitionedCall/while/Func/StatefulPartitionedCall/simplified_model_with_melspec/bidirectional_1/backward_lstm_1/PartitionedCall/input/_71_switch/_290:1"], "attr": {"T": {"type": "DT_FLOAT"}}}, {"name": "StatefulPartitionedCall/simplified_model_with_melspec/bidirectional_1/backward_lstm_1/PartitionedCall/while/body/_261/while/mul_1", "op": "Mul", "input": ["StatefulPartitionedCall/simplified_model_with_melspec/bidirectional_1/backward_lstm_1/PartitionedCall/while/body/_261/while/Sigmoid", "StatefulPartitionedCall/simplified_model_with_melspec/bidirectional_1/backward_lstm_1/PartitionedCall/while/body/_261/while/Tanh"], "attr": {"T": {"type": "DT_FLOAT"}}}, {"name": "StatefulPartitionedCall/simplified_model_with_melspec/dot/ExpandDims", "op": "ExpandDims", "input": ["StatefulPartitionedCall/simplified_model_with_melspec/dense/BiasAdd", "StatefulPartitionedCall/simplified_model_with_melspec/dot/ExpandDims/dim"], "attr": {"Tdim": {"type": "DT_INT32"}, "T": {"type": "DT_FLOAT"}}}, {"name": "StatefulPartitionedCall/simplified_model_with_melspec/bidirectional_1/forward_lstm_1/PartitionedCall/while/body/_201/while/add_1", "op": "AddV2", "input": ["StatefulPartitionedCall/simplified_model_with_melspec/bidirectional_1/forward_lstm_1/PartitionedCall/while/body/_201/while/mul", "StatefulPartitionedCall/simplified_model_with_melspec/bidirectional_1/forward_lstm_1/PartitionedCall/while/body/_201/while/mul_1"], "attr": {"T": {"type": "DT_FLOAT"}}}, {"name": "StatefulPartitionedCall/simplified_model_with_melspec/bidirectional_1/backward_lstm_1/PartitionedCall/while/body/_261/while/add_1", "op": "AddV2", "input": ["StatefulPartitionedCall/simplified_model_with_melspec/bidirectional_1/backward_lstm_1/PartitionedCall/while/body/_261/while/mul", "StatefulPartitionedCall/simplified_model_with_melspec/bidirectional_1/backward_lstm_1/PartitionedCall/while/body/_261/while/mul_1"], "attr": {"T": {"type": "DT_FLOAT"}}}, {"name": "StatefulPartitionedCall/simplified_model_with_melspec/dot/ArithmeticOptimizer/FoldTransposeIntoMatMul_MatMul", "op": "BatchMatMulV2", "input": ["StatefulPartitionedCall/simplified_model_with_melspec/dot/ExpandDims", "StatefulPartitionedCall/simplified_model_with_melspec/bidirectional_1/concat"], "attr": {"adj_x": {"b": false}, "T": {"type": "DT_FLOAT"}, "adj_y": {"b": true}}}, {"name": "StatefulPartitionedCall/simplified_model_with_melspec/bidirectional_1/forward_lstm_1/PartitionedCall/while/body/_201/while/Tanh_1", "op": "Tanh", "input": ["StatefulPartitionedCall/simplified_model_with_melspec/bidirectional_1/forward_lstm_1/PartitionedCall/while/body/_201/while/add_1"], "attr": {"T": {"type": "DT_FLOAT"}}}, {"name": "StatefulPartitionedCall/simplified_model_with_melspec/bidirectional_1/forward_lstm_1/PartitionedCall/while/next_iteration/_254", "op": "NextIteration", "input": ["StatefulPartitionedCall/simplified_model_with_melspec/bidirectional_1/forward_lstm_1/PartitionedCall/while/body/_201/while/add_1", "^StatefulPartitionedCall/simplified_model_with_melspec/bidirectional_1/forward_lstm_1/PartitionedCall/while/loop_body_control/_236"], "attr": {"T": {"type": "DT_FLOAT"}}}, {"name": "StatefulPartitionedCall/simplified_model_with_melspec/bidirectional_1/backward_lstm_1/PartitionedCall/while/body/_261/while/Tanh_1", "op": "Tanh", "input": ["StatefulPartitionedCall/simplified_model_with_melspec/bidirectional_1/backward_lstm_1/PartitionedCall/while/body/_261/while/add_1"], "attr": {"T": {"type": "DT_FLOAT"}}}, {"name": "StatefulPartitionedCall/simplified_model_with_melspec/bidirectional_1/backward_lstm_1/PartitionedCall/while/next_iteration/_314", "op": "NextIteration", "input": ["StatefulPartitionedCall/simplified_model_with_melspec/bidirectional_1/backward_lstm_1/PartitionedCall/while/body/_261/while/add_1", "^StatefulPartitionedCall/simplified_model_with_melspec/bidirectional_1/backward_lstm_1/PartitionedCall/while/loop_body_control/_296"], "attr": {"T": {"type": "DT_FLOAT"}}}, {"name": "StatefulPartitionedCall/simplified_model_with_melspec/dot/Squeeze", "op": "Squeeze", "input": ["StatefulPartitionedCall/simplified_model_with_melspec/dot/ArithmeticOptimizer/FoldTransposeIntoMatMul_MatMul"], "attr": {"T": {"type": "DT_FLOAT"}, "squeeze_dims": {"list": {"i": ["1"]}}}}, {"name": "StatefulPartitionedCall/simplified_model_with_melspec/bidirectional_1/forward_lstm_1/PartitionedCall/while/body/_201/while/mul_2", "op": "Mul", "input": ["StatefulPartitionedCall/simplified_model_with_melspec/bidirectional_1/forward_lstm_1/PartitionedCall/while/body/_201/while/Sigmoid_2", "StatefulPartitionedCall/simplified_model_with_melspec/bidirectional_1/forward_lstm_1/PartitionedCall/while/body/_201/while/Tanh_1"], "attr": {"T": {"type": "DT_FLOAT"}}}, {"name": "StatefulPartitionedCall/simplified_model_with_melspec/bidirectional_1/backward_lstm_1/PartitionedCall/while/body/_261/while/mul_2", "op": "Mul", "input": ["StatefulPartitionedCall/simplified_model_with_melspec/bidirectional_1/backward_lstm_1/PartitionedCall/while/body/_261/while/Sigmoid_2", "StatefulPartitionedCall/simplified_model_with_melspec/bidirectional_1/backward_lstm_1/PartitionedCall/while/body/_261/while/Tanh_1"], "attr": {"T": {"type": "DT_FLOAT"}}}, {"name": "StatefulPartitionedCall/simplified_model_with_melspec/attSoftmax/Softmax", "op": "Softmax", "input": ["StatefulPartitionedCall/simplified_model_with_melspec/dot/Squeeze"], "attr": {"T": {"type": "DT_FLOAT"}}}, {"name": "StatefulPartitionedCall/simplified_model_with_melspec/bidirectional_1/forward_lstm_1/PartitionedCall/while/next_iteration/_253", "op": "NextIteration", "input": ["StatefulPartitionedCall/simplified_model_with_melspec/bidirectional_1/forward_lstm_1/PartitionedCall/while/body/_201/while/mul_2", "^StatefulPartitionedCall/simplified_model_with_melspec/bidirectional_1/forward_lstm_1/PartitionedCall/while/loop_body_control/_236"], "attr": {"T": {"type": "DT_FLOAT"}}}, {"name": "StatefulPartitionedCall/simplified_model_with_melspec/bidirectional_1/forward_lstm_1/PartitionedCall/while/body/_201/while/TensorArrayV2Write/TensorListSetItem", "op": "TensorListSetItem", "input": ["StatefulPartitionedCall/simplified_model_with_melspec/bidirectional_1/forward_lstm_1/PartitionedCall/while/StatefulPartitionedCall/simplified_model_with_melspec/bidirectional_1/forward_lstm_1/PartitionedCall/TensorArrayV2_1_switch/_228:1", "Func/StatefulPartitionedCall/simplified_model_with_melspec/bidirectional_1/forward_lstm_1/PartitionedCall/while/body/_201/input/_410", "StatefulPartitionedCall/simplified_model_with_melspec/bidirectional_1/forward_lstm_1/PartitionedCall/while/body/_201/while/mul_2"], "attr": {"element_dtype": {"type": "DT_FLOAT"}, "resize_if_index_out_of_bounds": {"b": false}}, "experimentalType": {"typeId": "TFT_PRODUCT", "args": [{"typeId": "TFT_ARRAY", "args": [{"typeId": "TFT_TENSOR", "args": [{"typeId": "TFT_FLOAT"}]}]}]}}, {"name": "StatefulPartitionedCall/simplified_model_with_melspec/bidirectional_1/backward_lstm_1/PartitionedCall/while/next_iteration/_313", "op": "NextIteration", "input": ["StatefulPartitionedCall/simplified_model_with_melspec/bidirectional_1/backward_lstm_1/PartitionedCall/while/body/_261/while/mul_2", "^StatefulPartitionedCall/simplified_model_with_melspec/bidirectional_1/backward_lstm_1/PartitionedCall/while/loop_body_control/_296"], "attr": {"T": {"type": "DT_FLOAT"}}}, {"name": "StatefulPartitionedCall/simplified_model_with_melspec/bidirectional_1/backward_lstm_1/PartitionedCall/while/body/_261/while/TensorArrayV2Write/TensorListSetItem", "op": "TensorListSetItem", "input": ["StatefulPartitionedCall/simplified_model_with_melspec/bidirectional_1/backward_lstm_1/PartitionedCall/while/StatefulPartitionedCall/simplified_model_with_melspec/bidirectional_1/backward_lstm_1/PartitionedCall/TensorArrayV2_1_switch/_288:1", "Func/StatefulPartitionedCall/simplified_model_with_melspec/bidirectional_1/backward_lstm_1/PartitionedCall/while/body/_261/input/_447", "StatefulPartitionedCall/simplified_model_with_melspec/bidirectional_1/backward_lstm_1/PartitionedCall/while/body/_261/while/mul_2"], "attr": {"element_dtype": {"type": "DT_FLOAT"}, "resize_if_index_out_of_bounds": {"b": false}}, "experimentalType": {"typeId": "TFT_PRODUCT", "args": [{"typeId": "TFT_ARRAY", "args": [{"typeId": "TFT_TENSOR", "args": [{"typeId": "TFT_FLOAT"}]}]}]}}, {"name": "StatefulPartitionedCall/simplified_model_with_melspec/dot_1/ExpandDims", "op": "ExpandDims", "input": ["StatefulPartitionedCall/simplified_model_with_melspec/attSoftmax/Softmax", "StatefulPartitionedCall/simplified_model_with_melspec/dot_1/ExpandDims/dim"], "attr": {"Tdim": {"type": "DT_INT32"}, "T": {"type": "DT_FLOAT"}}}, {"name": "StatefulPartitionedCall/simplified_model_with_melspec/bidirectional_1/forward_lstm_1/PartitionedCall/while/next_iteration/_252", "op": "NextIteration", "input": ["StatefulPartitionedCall/simplified_model_with_melspec/bidirectional_1/forward_lstm_1/PartitionedCall/while/body/_201/while/TensorArrayV2Write/TensorListSetItem", "^StatefulPartitionedCall/simplified_model_with_melspec/bidirectional_1/forward_lstm_1/PartitionedCall/while/loop_body_control/_236"], "attr": {"T": {"type": "DT_VARIANT"}}}, {"name": "StatefulPartitionedCall/simplified_model_with_melspec/bidirectional_1/backward_lstm_1/PartitionedCall/while/next_iteration/_312", "op": "NextIteration", "input": ["StatefulPartitionedCall/simplified_model_with_melspec/bidirectional_1/backward_lstm_1/PartitionedCall/while/body/_261/while/TensorArrayV2Write/TensorListSetItem", "^StatefulPartitionedCall/simplified_model_with_melspec/bidirectional_1/backward_lstm_1/PartitionedCall/while/loop_body_control/_296"], "attr": {"T": {"type": "DT_VARIANT"}}}, {"name": "StatefulPartitionedCall/simplified_model_with_melspec/dot_1/MatMul", "op": "BatchMatMulV2", "input": ["StatefulPartitionedCall/simplified_model_with_melspec/dot_1/ExpandDims", "StatefulPartitionedCall/simplified_model_with_melspec/bidirectional_1/concat"], "attr": {"adj_x": {"b": false}, "T": {"type": "DT_FLOAT"}, "adj_y": {"b": false}}}, {"name": "StatefulPartitionedCall/simplified_model_with_melspec/dot_1/Squeeze", "op": "Squeeze", "input": ["StatefulPartitionedCall/simplified_model_with_melspec/dot_1/MatMul"], "attr": {"T": {"type": "DT_FLOAT"}, "squeeze_dims": {"list": {"i": ["1"]}}}}, {"name": "StatefulPartitionedCall/simplified_model_with_melspec/dense_1/leaky_re_lu_2/LeakyRelu", "op": "_FusedMatMul", "input": ["StatefulPartitionedCall/simplified_model_with_melspec/dot_1/Squeeze", "StatefulPartitionedCall/simplified_model_with_melspec/dense_1/MatMul/ReadVariableOp", "StatefulPartitionedCall/simplified_model_with_melspec/dense_1/BiasAdd/ReadVariableOp"], "device": "/device:CPU:0", "attr": {"transpose_a": {"b": false}, "transpose_b": {"b": false}, "fused_ops": {"list": {"s": ["Qmlhc0FkZA==", "TGVha3lSZWx1"]}}, "leakyrelu_alpha": {"f": 0.1}, "num_args": {"i": "1"}, "epsilon": {"f": 0.0}, "T": {"type": "DT_FLOAT"}}}, {"name": "StatefulPartitionedCall/simplified_model_with_melspec/dense_2/BiasAdd", "op": "_FusedMatMul", "input": ["StatefulPartitionedCall/simplified_model_with_melspec/dense_1/leaky_re_lu_2/LeakyRelu", "StatefulPartitionedCall/simplified_model_with_melspec/dense_2/MatMul/ReadVariableOp", "StatefulPartitionedCall/simplified_model_with_melspec/dense_2/BiasAdd/ReadVariableOp"], "device": "/device:CPU:0", "attr": {"transpose_a": {"b": false}, "transpose_b": {"b": false}, "fused_ops": {"list": {"s": ["Qmlhc0FkZA=="]}}, "leakyrelu_alpha": {"f": 0.2}, "num_args": {"i": "1"}, "epsilon": {"f": 0.0}, "T": {"type": "DT_FLOAT"}}}, {"name": "StatefulPartitionedCall/simplified_model_with_melspec/dense_3/BiasAdd", "op": "_FusedMatMul", "input": ["StatefulPartitionedCall/simplified_model_with_melspec/dense_2/BiasAdd", "StatefulPartitionedCall/simplified_model_with_melspec/dense_3/MatMul/ReadVariableOp", "StatefulPartitionedCall/simplified_model_with_melspec/dense_3/BiasAdd/ReadVariableOp"], "device": "/device:CPU:0", "attr": {"transpose_a": {"b": false}, "transpose_b": {"b": false}, "fused_ops": {"list": {"s": ["Qmlhc0FkZA=="]}}, "leakyrelu_alpha": {"f": 0.2}, "num_args": {"i": "1"}, "epsilon": {"f": 0.0}, "T": {"type": "DT_FLOAT"}}}, {"name": "StatefulPartitionedCall/simplified_model_with_melspec/dense_3/Softmax", "op": "Softmax", "input": ["StatefulPartitionedCall/simplified_model_with_melspec/dense_3/BiasAdd"], "attr": {"T": {"type": "DT_FLOAT"}}}, {"name": "Identity", "op": "Identity", "input": ["StatefulPartitionedCall/simplified_model_with_melspec/dense_3/Softmax"], "attr": {"T": {"type": "DT_FLOAT"}}}], "library": {}, "versions": {"producer": 1482}}, "weightsManifest": [{"paths": ["group1-shard1of1.bin"], "weights": [{"name": "StatefulPartitionedCall/simplified_model_with_melspec/lambda/strided_slice/stack", "shape": [2], "dtype": "int32"}, {"name": "StatefulPartitionedCall/simplified_model_with_melspec/lambda/strided_slice/stack_1", "shape": [2], "dtype": "int32"}, {"name": "StatefulPartitionedCall/simplified_model_with_melspec/lambda/strided_slice/stack_2", "shape": [2], "dtype": "int32"}, {"name": "StatefulPartitionedCall/simplified_model_with_melspec/dense/MatMul/ReadVariableOp", "shape": [128, 128], "dtype": "float32"}, {"name": "StatefulPartitionedCall/simplified_model_with_melspec/dense/BiasAdd/ReadVariableOp", "shape": [128], "dtype": "float32"}, {"name": "StatefulPartitionedCall/simplified_model_with_melspec/dot/ExpandDims/dim", "shape": [], "dtype": "int32"}, {"name": "StatefulPartitionedCall/simplified_model_with_melspec/dot_1/ExpandDims/dim", "shape": [], "dtype": "int32"}, {"name": "StatefulPartitionedCall/simplified_model_with_melspec/bidirectional_1/forward_lstm_1/PartitionedCall/TensorArrayV2_1/element_shape", "shape": [2], "dtype": "int32"}, {"name": "StatefulPartitionedCall/simplified_model_with_melspec/bidirectional_1/forward_lstm_1/zeros_1/packed/1", "shape": [], "dtype": "int32"}, {"name": "StatefulPartitionedCall/simplified_model_with_melspec/bidirectional_1/forward_lstm_1/zeros_1/Const", "shape": [], "dtype": "float32"}, {"name": "StatefulPartitionedCall/simplified_model_with_melspec/bidirectional_1/forward_lstm_1/PartitionedCall/TensorArrayUnstack/TensorListFromTensor/element_shape", "shape": [2], "dtype": "int32"}, {"name": "StatefulPartitionedCall/simplified_model_with_melspec/bidirectional_1/forward_lstm_1/Read/ReadVariableOp", "shape": [128, 256], "dtype": "float32"}, {"name": "StatefulPartitionedCall/simplified_model_with_melspec/bidirectional_1/forward_lstm_1/strided_slice/stack", "shape": [1], "dtype": "int32"}, {"name": "StatefulPartitionedCall/simplified_model_with_melspec/bidirectional_1/forward_lstm_1/strided_slice/stack_1", "shape": [1], "dtype": "int32"}, {"name": "StatefulPartitionedCall/simplified_model_with_melspec/bidirectional_1/forward_lstm_1/strided_slice/stack_2", "shape": [1], "dtype": "int32"}, {"name": "StatefulPartitionedCall/simplified_model_with_melspec/bidirectional_1/forward_lstm_1/zeros/packed/1", "shape": [], "dtype": "int32"}, {"name": "StatefulPartitionedCall/simplified_model_with_melspec/bidirectional_1/forward_lstm_1/zeros/Const", "shape": [], "dtype": "float32"}, {"name": "StatefulPartitionedCall/simplified_model_with_melspec/bidirectional_1/forward_lstm_1/Read_1/ReadVariableOp", "shape": [64, 256], "dtype": "float32"}, {"name": "StatefulPartitionedCall/simplified_model_with_melspec/bidirectional_1/forward_lstm_1/Read_2/ReadVariableOp", "shape": [256], "dtype": "float32"}, {"name": "StatefulPartitionedCall/simplified_model_with_melspec/bidirectional_1/forward_lstm_1/PartitionedCall/time", "shape": [], "dtype": "int32"}, {"name": "StatefulPartitionedCall/simplified_model_with_melspec/bidirectional_1/forward_lstm_1/PartitionedCall/transpose/perm", "shape": [3], "dtype": "int32"}, {"name": "StatefulPartitionedCall/simplified_model_with_melspec/bidirectional_1/forward_lstm_1/PartitionedCall/strided_slice/stack", "shape": [1], "dtype": "int32"}, {"name": "StatefulPartitionedCall/simplified_model_with_melspec/bidirectional_1/forward_lstm_1/PartitionedCall/strided_slice/stack_1", "shape": [1], "dtype": "int32"}, {"name": "StatefulPartitionedCall/simplified_model_with_melspec/bidirectional_1/forward_lstm_1/PartitionedCall/strided_slice/stack_2", "shape": [1], "dtype": "int32"}, {"name": "StatefulPartitionedCall/simplified_model_with_melspec/bidirectional_1/forward_lstm_1/PartitionedCall/while/loop_counter", "shape": [], "dtype": "int32"}, {"name": "StatefulPartitionedCall/simplified_model_with_melspec/bidirectional_1/forward_lstm_1/PartitionedCall/TensorArrayV2Stack/TensorListStack/element_shape", "shape": [2], "dtype": "int32"}, {"name": "StatefulPartitionedCall/simplified_model_with_melspec/bidirectional_1/forward_lstm_1/PartitionedCall/transpose_1/perm", "shape": [3], "dtype": "int32"}, {"name": "StatefulPartitionedCall/simplified_model_with_melspec/bidirectional_1/backward_lstm_1/PartitionedCall/TensorArrayV2_1/element_shape", "shape": [2], "dtype": "int32"}, {"name": "StatefulPartitionedCall/simplified_model_with_melspec/bidirectional_1/backward_lstm_1/zeros_1/packed/1", "shape": [], "dtype": "int32"}, {"name": "StatefulPartitionedCall/simplified_model_with_melspec/bidirectional_1/backward_lstm_1/zeros_1/Const", "shape": [], "dtype": "float32"}, {"name": "StatefulPartitionedCall/simplified_model_with_melspec/bidirectional_1/backward_lstm_1/PartitionedCall/ReverseV2/axis", "shape": [1], "dtype": "int32"}, {"name": "StatefulPartitionedCall/simplified_model_with_melspec/bidirectional_1/backward_lstm_1/PartitionedCall/TensorArrayUnstack/TensorListFromTensor/element_shape", "shape": [2], "dtype": "int32"}, {"name": "StatefulPartitionedCall/simplified_model_with_melspec/bidirectional_1/backward_lstm_1/Read/ReadVariableOp", "shape": [128, 256], "dtype": "float32"}, {"name": "StatefulPartitionedCall/simplified_model_with_melspec/bidirectional_1/backward_lstm_1/strided_slice/stack", "shape": [1], "dtype": "int32"}, {"name": "StatefulPartitionedCall/simplified_model_with_melspec/bidirectional_1/backward_lstm_1/strided_slice/stack_1", "shape": [1], "dtype": "int32"}, {"name": "StatefulPartitionedCall/simplified_model_with_melspec/bidirectional_1/backward_lstm_1/strided_slice/stack_2", "shape": [1], "dtype": "int32"}, {"name": "StatefulPartitionedCall/simplified_model_with_melspec/bidirectional_1/backward_lstm_1/zeros/packed/1", "shape": [], "dtype": "int32"}, {"name": "StatefulPartitionedCall/simplified_model_with_melspec/bidirectional_1/backward_lstm_1/zeros/Const", "shape": [], "dtype": "float32"}, {"name": "StatefulPartitionedCall/simplified_model_with_melspec/bidirectional_1/backward_lstm_1/Read_1/ReadVariableOp", "shape": [64, 256], "dtype": "float32"}, {"name": "StatefulPartitionedCall/simplified_model_with_melspec/bidirectional_1/backward_lstm_1/Read_2/ReadVariableOp", "shape": [256], "dtype": "float32"}, {"name": "StatefulPartitionedCall/simplified_model_with_melspec/bidirectional_1/backward_lstm_1/PartitionedCall/time", "shape": [], "dtype": "int32"}, {"name": "StatefulPartitionedCall/simplified_model_with_melspec/bidirectional/forward_lstm/PartitionedCall/TensorArrayV2_1/element_shape", "shape": [2], "dtype": "int32"}, {"name": "StatefulPartitionedCall/simplified_model_with_melspec/bidirectional/forward_lstm/zeros_1/packed/1", "shape": [], "dtype": "int32"}, {"name": "StatefulPartitionedCall/simplified_model_with_melspec/bidirectional/forward_lstm/zeros_1/Const", "shape": [], "dtype": "float32"}, {"name": "StatefulPartitionedCall/simplified_model_with_melspec/bidirectional/forward_lstm/PartitionedCall/TensorArrayUnstack/TensorListFromTensor/element_shape", "shape": [2], "dtype": "int32"}, {"name": "StatefulPartitionedCall/simplified_model_with_melspec/bidirectional/forward_lstm/Read/ReadVariableOp", "shape": [64, 256], "dtype": "float32"}, {"name": "StatefulPartitionedCall/simplified_model_with_melspec/bidirectional/forward_lstm/strided_slice/stack", "shape": [1], "dtype": "int32"}, {"name": "StatefulPartitionedCall/simplified_model_with_melspec/bidirectional/forward_lstm/strided_slice/stack_1", "shape": [1], "dtype": "int32"}, {"name": "StatefulPartitionedCall/simplified_model_with_melspec/bidirectional/forward_lstm/strided_slice/stack_2", "shape": [1], "dtype": "int32"}, {"name": "StatefulPartitionedCall/simplified_model_with_melspec/bidirectional/forward_lstm/zeros/packed/1", "shape": [], "dtype": "int32"}, {"name": "StatefulPartitionedCall/simplified_model_with_melspec/bidirectional/forward_lstm/zeros/Const", "shape": [], "dtype": "float32"}, {"name": "StatefulPartitionedCall/simplified_model_with_melspec/bidirectional/forward_lstm/Read_1/ReadVariableOp", "shape": [64, 256], "dtype": "float32"}, {"name": "StatefulPartitionedCall/simplified_model_with_melspec/bidirectional/forward_lstm/Read_2/ReadVariableOp", "shape": [256], "dtype": "float32"}, {"name": "StatefulPartitionedCall/simplified_model_with_melspec/bidirectional/forward_lstm/PartitionedCall/time", "shape": [], "dtype": "int32"}, {"name": "StatefulPartitionedCall/simplified_model_with_melspec/bidirectional/forward_lstm/PartitionedCall/transpose/perm", "shape": [3], "dtype": "int32"}, {"name": "StatefulPartitionedCall/simplified_model_with_melspec/bidirectional/forward_lstm/PartitionedCall/strided_slice/stack", "shape": [1], "dtype": "int32"}, {"name": "StatefulPartitionedCall/simplified_model_with_melspec/bidirectional/forward_lstm/PartitionedCall/strided_slice/stack_1", "shape": [1], "dtype": "int32"}, {"name": "StatefulPartitionedCall/simplified_model_with_melspec/bidirectional/forward_lstm/PartitionedCall/strided_slice/stack_2", "shape": [1], "dtype": "int32"}, {"name": "StatefulPartitionedCall/simplified_model_with_melspec/bidirectional/forward_lstm/PartitionedCall/while/loop_counter", "shape": [], "dtype": "int32"}, {"name": "StatefulPartitionedCall/simplified_model_with_melspec/bidirectional/forward_lstm/PartitionedCall/TensorArrayV2Stack/TensorListStack/element_shape", "shape": [2], "dtype": "int32"}, {"name": "StatefulPartitionedCall/simplified_model_with_melspec/bidirectional/forward_lstm/PartitionedCall/transpose_1/perm", "shape": [3], "dtype": "int32"}, {"name": "StatefulPartitionedCall/simplified_model_with_melspec/bidirectional/backward_lstm/PartitionedCall/TensorArrayV2_1/element_shape", "shape": [2], "dtype": "int32"}, {"name": "StatefulPartitionedCall/simplified_model_with_melspec/bidirectional/backward_lstm/zeros_1/packed/1", "shape": [], "dtype": "int32"}, {"name": "StatefulPartitionedCall/simplified_model_with_melspec/bidirectional/backward_lstm/zeros_1/Const", "shape": [], "dtype": "float32"}, {"name": "StatefulPartitionedCall/simplified_model_with_melspec/bidirectional/backward_lstm/PartitionedCall/ReverseV2/axis", "shape": [1], "dtype": "int32"}, {"name": "StatefulPartitionedCall/simplified_model_with_melspec/bidirectional/backward_lstm/PartitionedCall/TensorArrayUnstack/TensorListFromTensor/element_shape", "shape": [2], "dtype": "int32"}, {"name": "StatefulPartitionedCall/simplified_model_with_melspec/bidirectional/backward_lstm/Read/ReadVariableOp", "shape": [64, 256], "dtype": "float32"}, {"name": "StatefulPartitionedCall/simplified_model_with_melspec/bidirectional/backward_lstm/strided_slice/stack", "shape": [1], "dtype": "int32"}, {"name": "StatefulPartitionedCall/simplified_model_with_melspec/bidirectional/backward_lstm/strided_slice/stack_1", "shape": [1], "dtype": "int32"}, {"name": "StatefulPartitionedCall/simplified_model_with_melspec/bidirectional/backward_lstm/strided_slice/stack_2", "shape": [1], "dtype": "int32"}, {"name": "StatefulPartitionedCall/simplified_model_with_melspec/bidirectional/backward_lstm/zeros/packed/1", "shape": [], "dtype": "int32"}, {"name": "StatefulPartitionedCall/simplified_model_with_melspec/bidirectional/backward_lstm/zeros/Const", "shape": [], "dtype": "float32"}, {"name": "StatefulPartitionedCall/simplified_model_with_melspec/bidirectional/backward_lstm/Read_1/ReadVariableOp", "shape": [64, 256], "dtype": "float32"}, {"name": "StatefulPartitionedCall/simplified_model_with_melspec/bidirectional/backward_lstm/Read_2/ReadVariableOp", "shape": [256], "dtype": "float32"}, {"name": "StatefulPartitionedCall/simplified_model_with_melspec/bidirectional/backward_lstm/PartitionedCall/time", "shape": [], "dtype": "int32"}, {"name": "StatefulPartitionedCall/simplified_model_with_melspec/normalized_spectrogram_model/tf.math.reduce_mean_1/Const", "shape": [3], "dtype": "int32"}, {"name": "StatefulPartitionedCall/simplified_model_with_melspec/normalized_spectrogram_model/tf.tensordot_1/Tensordot/Const", "shape": [1], "dtype": "int32"}, {"name": "StatefulPartitionedCall/simplified_model_with_melspec/normalized_spectrogram_model/tf.tensordot_1/Tensordot/axes", "shape": [1], "dtype": "int32"}, {"name": "StatefulPartitionedCall/simplified_model_with_melspec/normalized_spectrogram_model/tf.tensordot_1/Tensordot/GatherV2_1/axis", "shape": [], "dtype": "int32"}, {"name": "StatefulPartitionedCall/simplified_model_with_melspec/normalized_spectrogram_model/tf.tensordot_1/Tensordot/Const_1", "shape": [1], "dtype": "int32"}, {"name": "unknown", "shape": [257, 64], "dtype": "float32"}, {"name": "StatefulPartitionedCall/simplified_model_with_melspec/normalized_spectrogram_model/tf.signal.stft_1/stft/frame/zeros_like", "shape": [2], "dtype": "int32"}, {"name": "StatefulPartitionedCall/simplified_model_with_melspec/normalized_spectrogram_model/tf.signal.stft_1/stft/frame/mul_1/y", "shape": [], "dtype": "int32"}, {"name": "StatefulPartitionedCall/simplified_model_with_melspec/normalized_spectrogram_model/tf.signal.stft_1/stft/frame/concat_1/axis", "shape": [], "dtype": "int32"}, {"name": "StatefulPartitionedCall/simplified_model_with_melspec/normalized_spectrogram_model/tf.signal.stft_1/stft/frame/ones_like", "shape": [2], "dtype": "int32"}, {"name": "StatefulPartitionedCall/simplified_model_with_melspec/normalized_spectrogram_model/tf.signal.stft_1/stft/frame/zeros", "shape": [1, 2], "dtype": "int32"}, {"name": "StatefulPartitionedCall/simplified_model_with_melspec/normalized_spectrogram_model/tf.signal.stft_1/stft/frame/packed_1/0/0", "shape": [], "dtype": "int32"}, {"name": "StatefulPartitionedCall/simplified_model_with_melspec/normalized_spectrogram_model/tf.signal.stft_1/stft/frame/Maximum/x", "shape": [], "dtype": "int32"}, {"name": "StatefulPartitionedCall/simplified_model_with_melspec/normalized_spectrogram_model/tf.signal.stft_1/stft/frame/sub_2/y", "shape": [], "dtype": "int32"}, {"name": "StatefulPartitionedCall/simplified_model_with_melspec/normalized_spectrogram_model/tf.signal.stft_1/stft/frame/zeros_1", "shape": [0, 2], "dtype": "int32"}, {"name": "StatefulPartitionedCall/simplified_model_with_melspec/normalized_spectrogram_model/tf.signal.stft_1/stft/frame/concat/axis", "shape": [], "dtype": "int32"}, {"name": "StatefulPartitionedCall/simplified_model_with_melspec/normalized_spectrogram_model/tf.signal.stft_1/stft/frame/Const", "shape": [], "dtype": "float32"}, {"name": "StatefulPartitionedCall/simplified_model_with_melspec/normalized_spectrogram_model/tf.signal.stft_1/stft/frame/strided_slice_1/stack", "shape": [1], "dtype": "int32"}, {"name": "StatefulPartitionedCall/simplified_model_with_melspec/normalized_spectrogram_model/tf.signal.stft_1/stft/frame/strided_slice_1/stack_1", "shape": [1], "dtype": "int32"}, {"name": "StatefulPartitionedCall/simplified_model_with_melspec/normalized_spectrogram_model/tf.signal.stft_1/stft/frame/strided_slice_1/stack_2", "shape": [1], "dtype": "int32"}, {"name": "StatefulPartitionedCall/simplified_model_with_melspec/normalized_spectrogram_model/tf.signal.stft_1/stft/frame/floordiv_3/y", "shape": [], "dtype": "int32"}, {"name": "StatefulPartitionedCall/simplified_model_with_melspec/normalized_spectrogram_model/tf.signal.stft_1/stft/frame/concat_2/values_1/1", "shape": [], "dtype": "int32"}, {"name": "StatefulPartitionedCall/simplified_model_with_melspec/normalized_spectrogram_model/tf.signal.stft_1/stft/frame/concat_2/axis", "shape": [], "dtype": "int32"}, {"name": "StatefulPartitionedCall/simplified_model_with_melspec/normalized_spectrogram_model/tf.signal.stft_1/stft/frame/range_1/start", "shape": [], "dtype": "int32"}, {"name": "StatefulPartitionedCall/simplified_model_with_melspec/normalized_spectrogram_model/tf.signal.stft_1/stft/frame/range_1/delta", "shape": [], "dtype": "int32"}, {"name": "StatefulPartitionedCall/simplified_model_with_melspec/normalized_spectrogram_model/tf.signal.stft_1/stft/frame/floordiv_2", "shape": [], "dtype": "int32"}, {"name": "StatefulPartitionedCall/simplified_model_with_melspec/normalized_spectrogram_model/tf.signal.stft_1/stft/frame/Reshape_2/shape/1", "shape": [], "dtype": "int32"}, {"name": "StatefulPartitionedCall/simplified_model_with_melspec/normalized_spectrogram_model/tf.signal.stft_1/stft/frame/Reshape_3", "shape": [1, 16], "dtype": "int32"}, {"name": "StatefulPartitionedCall/simplified_model_with_melspec/normalized_spectrogram_model/tf.signal.stft_1/stft/frame/strided_slice", "shape": [], "dtype": "int32"}, {"name": "StatefulPartitionedCall/simplified_model_with_melspec/normalized_spectrogram_model/tf.signal.stft_1/stft/frame/Reshape/shape_1", "shape": [0], "dtype": "int32"}, {"name": "StatefulPartitionedCall/simplified_model_with_melspec/normalized_spectrogram_model/tf.signal.stft_1/stft/frame_step", "shape": [], "dtype": "int32"}, {"name": "StatefulPartitionedCall/simplified_model_with_melspec/normalized_spectrogram_model/tf.signal.stft_1/stft/frame_length", "shape": [], "dtype": "int32"}, {"name": "StatefulPartitionedCall/simplified_model_with_melspec/normalized_spectrogram_model/tf.signal.stft_1/stft/frame/packed", "shape": [3], "dtype": "int32"}, {"name": "StatefulPartitionedCall/simplified_model_with_melspec/normalized_spectrogram_model/tf.signal.stft_1/stft/frame/split/split_dim", "shape": [], "dtype": "int32"}, {"name": "StatefulPartitionedCall/simplified_model_with_melspec/normalized_spectrogram_model/tf.signal.stft_1/stft/frame/concat_3/axis", "shape": [], "dtype": "int32"}, {"name": "StatefulPartitionedCall/simplified_model_with_melspec/normalized_spectrogram_model/tf.signal.stft_1/stft/hann_window/sub_2", "shape": [512], "dtype": "float32"}, {"name": "StatefulPartitionedCall/simplified_model_with_melspec/normalized_spectrogram_model/tf.signal.stft_1/stft/rfft/fft_length", "shape": [1], "dtype": "int32"}, {"name": "StatefulPartitionedCall/simplified_model_with_melspec/normalized_spectrogram_model/tf.tensordot_1/Tensordot/free", "shape": [2], "dtype": "int32"}, {"name": "StatefulPartitionedCall/simplified_model_with_melspec/normalized_spectrogram_model/tf.tensordot_1/Tensordot/GatherV2/axis", "shape": [], "dtype": "int32"}, {"name": "StatefulPartitionedCall/simplified_model_with_melspec/normalized_spectrogram_model/tf.tensordot_1/Tensordot/Const_2", "shape": [1], "dtype": "int32"}, {"name": "StatefulPartitionedCall/simplified_model_with_melspec/normalized_spectrogram_model/tf.tensordot_1/Tensordot/concat_1/axis", "shape": [], "dtype": "int32"}, {"name": "StatefulPartitionedCall/simplified_model_with_melspec/normalized_spectrogram_model/tf.__operators__.add_1/y", "shape": [], "dtype": "float32"}, {"name": "StatefulPartitionedCall/simplified_model_with_melspec/normalized_spectrogram_model/tf.math.reduce_std_1/reduce_std/reduce_variance/Const", "shape": [3], "dtype": "int32"}, {"name": "StatefulPartitionedCall/simplified_model_with_melspec/normalized_spectrogram_model/tf.math.reduce_std_1/reduce_std/reduce_variance/Const_1", "shape": [3], "dtype": "int32"}, {"name": "StatefulPartitionedCall/simplified_model_with_melspec/tf.expand_dims/ExpandDims/dim", "shape": [], "dtype": "int32"}, {"name": "StatefulPartitionedCall/simplified_model_with_melspec/conv2d/Conv2D/ReadVariableOp", "shape": [5, 1, 1, 10], "dtype": "float32"}, {"name": "StatefulPartitionedCall/simplified_model_with_melspec/conv2d/BiasAdd/ReadVariableOp", "shape": [10], "dtype": "float32"}, {"name": "StatefulPartitionedCall/simplified_model_with_melspec/conv2d_1/Conv2D/ReadVariableOp", "shape": [5, 1, 10, 1], "dtype": "float32"}, {"name": "StatefulPartitionedCall/simplified_model_with_melspec/conv2d_1/BiasAdd/ReadVariableOp", "shape": [1], "dtype": "float32"}, {"name": "StatefulPartitionedCall/simplified_model_with_melspec/bidirectional/backward_lstm/PartitionedCall/transpose/perm", "shape": [3], "dtype": "int32"}, {"name": "StatefulPartitionedCall/simplified_model_with_melspec/bidirectional/backward_lstm/PartitionedCall/strided_slice/stack", "shape": [1], "dtype": "int32"}, {"name": "StatefulPartitionedCall/simplified_model_with_melspec/bidirectional/backward_lstm/PartitionedCall/strided_slice/stack_1", "shape": [1], "dtype": "int32"}, {"name": "StatefulPartitionedCall/simplified_model_with_melspec/bidirectional/backward_lstm/PartitionedCall/strided_slice/stack_2", "shape": [1], "dtype": "int32"}, {"name": "StatefulPartitionedCall/simplified_model_with_melspec/bidirectional/backward_lstm/PartitionedCall/while/loop_counter", "shape": [], "dtype": "int32"}, {"name": "StatefulPartitionedCall/simplified_model_with_melspec/bidirectional/backward_lstm/PartitionedCall/TensorArrayV2Stack/TensorListStack/element_shape", "shape": [2], "dtype": "int32"}, {"name": "StatefulPartitionedCall/simplified_model_with_melspec/bidirectional/backward_lstm/PartitionedCall/transpose_1/perm", "shape": [3], "dtype": "int32"}, {"name": "StatefulPartitionedCall/simplified_model_with_melspec/bidirectional/ReverseV2/axis", "shape": [1], "dtype": "int32"}, {"name": "StatefulPartitionedCall/simplified_model_with_melspec/bidirectional/concat/axis", "shape": [], "dtype": "int32"}, {"name": "StatefulPartitionedCall/simplified_model_with_melspec/bidirectional_1/backward_lstm_1/PartitionedCall/transpose/perm", "shape": [3], "dtype": "int32"}, {"name": "StatefulPartitionedCall/simplified_model_with_melspec/bidirectional_1/backward_lstm_1/PartitionedCall/strided_slice/stack", "shape": [1], "dtype": "int32"}, {"name": "StatefulPartitionedCall/simplified_model_with_melspec/bidirectional_1/backward_lstm_1/PartitionedCall/strided_slice/stack_1", "shape": [1], "dtype": "int32"}, {"name": "StatefulPartitionedCall/simplified_model_with_melspec/bidirectional_1/backward_lstm_1/PartitionedCall/strided_slice/stack_2", "shape": [1], "dtype": "int32"}, {"name": "StatefulPartitionedCall/simplified_model_with_melspec/bidirectional_1/backward_lstm_1/PartitionedCall/while/loop_counter", "shape": [], "dtype": "int32"}, {"name": "StatefulPartitionedCall/simplified_model_with_melspec/bidirectional_1/backward_lstm_1/PartitionedCall/TensorArrayV2Stack/TensorListStack/element_shape", "shape": [2], "dtype": "int32"}, {"name": "StatefulPartitionedCall/simplified_model_with_melspec/bidirectional_1/backward_lstm_1/PartitionedCall/transpose_1/perm", "shape": [3], "dtype": "int32"}, {"name": "StatefulPartitionedCall/simplified_model_with_melspec/bidirectional_1/ReverseV2/axis", "shape": [1], "dtype": "int32"}, {"name": "StatefulPartitionedCall/simplified_model_with_melspec/bidirectional_1/concat/axis", "shape": [], "dtype": "int32"}, {"name": "StatefulPartitionedCall/simplified_model_with_melspec/dense_1/MatMul/ReadVariableOp", "shape": [128, 64], "dtype": "float32"}, {"name": "StatefulPartitionedCall/simplified_model_with_melspec/dense_1/BiasAdd/ReadVariableOp", "shape": [64], "dtype": "float32"}, {"name": "StatefulPartitionedCall/simplified_model_with_melspec/dense_2/MatMul/ReadVariableOp", "shape": [64, 32], "dtype": "float32"}, {"name": "StatefulPartitionedCall/simplified_model_with_melspec/dense_2/BiasAdd/ReadVariableOp", "shape": [32], "dtype": "float32"}, {"name": "StatefulPartitionedCall/simplified_model_with_melspec/dense_3/MatMul/ReadVariableOp", "shape": [32, 9], "dtype": "float32"}, {"name": "StatefulPartitionedCall/simplified_model_with_melspec/dense_3/BiasAdd/ReadVariableOp", "shape": [9], "dtype": "float32"}, {"name": "StatefulPartitionedCall/simplified_model_with_melspec/batch_normalization_1/FusedBatchNormV3/Scaled", "shape": [1], "dtype": "float32"}, {"name": "StatefulPartitionedCall/simplified_model_with_melspec/batch_normalization_1/FusedBatchNormV3/Offset", "shape": [1], "dtype": "float32"}, {"name": "StatefulPartitionedCall/simplified_model_with_melspec/batch_normalization/FusedBatchNormV3/Scaled", "shape": [10], "dtype": "float32"}, {"name": "StatefulPartitionedCall/simplified_model_with_melspec/batch_normalization/FusedBatchNormV3/Offset", "shape": [10], "dtype": "float32"}, {"name": "ConstantFolding/StatefulPartitionedCall/simplified_model_with_melspec/normalized_spectrogram_model/tf.signal.stft_1/stft/frame/packed_1_const_axis", "shape": [], "dtype": "int32"}, {"name": "ConstantFolding/StatefulPartitionedCall/simplified_model_with_melspec/normalized_spectrogram_model/tf.signal.stft_1/stft/frame/concat_1/values_1_const_axis", "shape": [], "dtype": "int32"}, {"name": "StatefulPartitionedCall/simplified_model_with_melspec/bidirectional/forward_lstm/PartitionedCall/while/body/_81/while/split/split_dim", "shape": [], "dtype": "int32"}, {"name": "StatefulPartitionedCall/simplified_model_with_melspec/bidirectional/forward_lstm/PartitionedCall/while/body/_81/while/TensorArrayV2Read/TensorListGetItem/element_shape", "shape": [2], "dtype": "int32"}, {"name": "StatefulPartitionedCall/simplified_model_with_melspec/bidirectional/forward_lstm/PartitionedCall/while/body/_81/while/add_2/y", "shape": [], "dtype": "int32"}, {"name": "StatefulPartitionedCall/simplified_model_with_melspec/bidirectional/forward_lstm/PartitionedCall/while/body/_81/while/add_3/y", "shape": [], "dtype": "int32"}, {"name": "StatefulPartitionedCall/simplified_model_with_melspec/bidirectional/backward_lstm/PartitionedCall/while/body/_141/while/split/split_dim", "shape": [], "dtype": "int32"}, {"name": "StatefulPartitionedCall/simplified_model_with_melspec/bidirectional/backward_lstm/PartitionedCall/while/body/_141/while/TensorArrayV2Read/TensorListGetItem/element_shape", "shape": [2], "dtype": "int32"}, {"name": "StatefulPartitionedCall/simplified_model_with_melspec/bidirectional/backward_lstm/PartitionedCall/while/body/_141/while/add_2/y", "shape": [], "dtype": "int32"}, {"name": "StatefulPartitionedCall/simplified_model_with_melspec/bidirectional/backward_lstm/PartitionedCall/while/body/_141/while/add_3/y", "shape": [], "dtype": "int32"}, {"name": "StatefulPartitionedCall/simplified_model_with_melspec/bidirectional_1/forward_lstm_1/PartitionedCall/while/body/_201/while/split/split_dim", "shape": [], "dtype": "int32"}, {"name": "StatefulPartitionedCall/simplified_model_with_melspec/bidirectional_1/forward_lstm_1/PartitionedCall/while/body/_201/while/TensorArrayV2Read/TensorListGetItem/element_shape", "shape": [2], "dtype": "int32"}, {"name": "StatefulPartitionedCall/simplified_model_with_melspec/bidirectional_1/forward_lstm_1/PartitionedCall/while/body/_201/while/add_2/y", "shape": [], "dtype": "int32"}, {"name": "StatefulPartitionedCall/simplified_model_with_melspec/bidirectional_1/forward_lstm_1/PartitionedCall/while/body/_201/while/add_3/y", "shape": [], "dtype": "int32"}, {"name": "StatefulPartitionedCall/simplified_model_with_melspec/bidirectional_1/backward_lstm_1/PartitionedCall/while/body/_261/while/split/split_dim", "shape": [], "dtype": "int32"}, {"name": "StatefulPartitionedCall/simplified_model_with_melspec/bidirectional_1/backward_lstm_1/PartitionedCall/while/body/_261/while/TensorArrayV2Read/TensorListGetItem/element_shape", "shape": [2], "dtype": "int32"}, {"name": "StatefulPartitionedCall/simplified_model_with_melspec/bidirectional_1/backward_lstm_1/PartitionedCall/while/body/_261/while/add_2/y", "shape": [], "dtype": "int32"}, {"name": "StatefulPartitionedCall/simplified_model_with_melspec/bidirectional_1/backward_lstm_1/PartitionedCall/while/body/_261/while/add_3/y", "shape": [], "dtype": "int32"}]}]}